<?xml version="1.0" ?>
<net name="torch-jit-export" version="11">
	<layers>
		<layer id="136" name="images" type="Parameter" version="opset1">
			<data shape="1,3,416,416" element_type="f32"/>
			<rt_info>
				<attribute name="fused_names" version="0" value="images"/>
				<attribute name="old_api_map_element_type" version="0" value="f16"/>
			</rt_info>
			<output>
				<port id="0" precision="FP32" names="images">
					<dim>1</dim>
					<dim>3</dim>
					<dim>416</dim>
					<dim>416</dim>
					<rt_info/>
				</port>
			</output>
		</layer>
		<layer id="0" name="4928493216574" type="Const" version="opset1">
			<data offset="0" size="4" shape="" element_type="f32"/>
			<output>
				<port id="0" precision="FP32"/>
			</output>
		</layer>
		<layer id="1" name="4929493317291" type="Const" version="opset1">
			<data offset="4" size="4" shape="" element_type="f32"/>
			<output>
				<port id="0" precision="FP32"/>
			</output>
		</layer>
		<layer id="2" name="4930493415956" type="Const" version="opset1">
			<data offset="0" size="4" shape="" element_type="f32"/>
			<output>
				<port id="0" precision="FP32"/>
			</output>
		</layer>
		<layer id="3" name="4931493515935" type="Const" version="opset1">
			<data offset="4" size="4" shape="" element_type="f32"/>
			<output>
				<port id="0" precision="FP32"/>
			</output>
		</layer>
		<layer id="4" name="2365236915998" type="Const" version="opset1">
			<data offset="8" size="4" shape="" element_type="f32"/>
			<output>
				<port id="0" precision="FP32"/>
			</output>
		</layer>
		<layer id="5" name="2366237015482" type="Const" version="opset1">
			<data offset="12" size="4" shape="" element_type="f32"/>
			<output>
				<port id="0" precision="FP32"/>
			</output>
		</layer>
		<layer id="6" name="2367237117261" type="Const" version="opset1">
			<data offset="8" size="4" shape="" element_type="f32"/>
			<output>
				<port id="0" precision="FP32"/>
			</output>
		</layer>
		<layer id="7" name="2368237217510" type="Const" version="opset1">
			<data offset="12" size="4" shape="" element_type="f32"/>
			<output>
				<port id="0" precision="FP32"/>
			</output>
		</layer>
		<layer id="8" name="5088509216190" type="Const" version="opset1">
			<data offset="16" size="4" shape="" element_type="f32"/>
			<output>
				<port id="0" precision="FP32"/>
			</output>
		</layer>
		<layer id="9" name="5089509317204" type="Const" version="opset1">
			<data offset="20" size="4" shape="" element_type="f32"/>
			<output>
				<port id="0" precision="FP32"/>
			</output>
		</layer>
		<layer id="10" name="5090509417321" type="Const" version="opset1">
			<data offset="16" size="4" shape="" element_type="f32"/>
			<output>
				<port id="0" precision="FP32"/>
			</output>
		</layer>
		<layer id="11" name="5091509516832" type="Const" version="opset1">
			<data offset="20" size="4" shape="" element_type="f32"/>
			<output>
				<port id="0" precision="FP32"/>
			</output>
		</layer>
		<layer id="12" name="4848485216454" type="Const" version="opset1">
			<data offset="24" size="4" shape="" element_type="f32"/>
			<output>
				<port id="0" precision="FP32"/>
			</output>
		</layer>
		<layer id="13" name="4849485316478" type="Const" version="opset1">
			<data offset="28" size="4" shape="" element_type="f32"/>
			<output>
				<port id="0" precision="FP32"/>
			</output>
		</layer>
		<layer id="14" name="4850485416757" type="Const" version="opset1">
			<data offset="24" size="4" shape="" element_type="f32"/>
			<output>
				<port id="0" precision="FP32"/>
			</output>
		</layer>
		<layer id="15" name="4851485516220" type="Const" version="opset1">
			<data offset="28" size="4" shape="" element_type="f32"/>
			<output>
				<port id="0" precision="FP32"/>
			</output>
		</layer>
		<layer id="16" name="2895289916706" type="Const" version="opset1">
			<data offset="32" size="4" shape="" element_type="f32"/>
			<output>
				<port id="0" precision="FP32"/>
			</output>
		</layer>
		<layer id="17" name="2896290015602" type="Const" version="opset1">
			<data offset="36" size="4" shape="" element_type="f32"/>
			<output>
				<port id="0" precision="FP32"/>
			</output>
		</layer>
		<layer id="18" name="2897290117003" type="Const" version="opset1">
			<data offset="32" size="4" shape="" element_type="f32"/>
			<output>
				<port id="0" precision="FP32"/>
			</output>
		</layer>
		<layer id="19" name="2898290215653" type="Const" version="opset1">
			<data offset="36" size="4" shape="" element_type="f32"/>
			<output>
				<port id="0" precision="FP32"/>
			</output>
		</layer>
		<layer id="20" name="2145214917507" type="Const" version="opset1">
			<data offset="40" size="4" shape="" element_type="f32"/>
			<output>
				<port id="0" precision="FP32"/>
			</output>
		</layer>
		<layer id="21" name="2146215016391" type="Const" version="opset1">
			<data offset="44" size="4" shape="" element_type="f32"/>
			<output>
				<port id="0" precision="FP32"/>
			</output>
		</layer>
		<layer id="22" name="2147215117447" type="Const" version="opset1">
			<data offset="40" size="4" shape="" element_type="f32"/>
			<output>
				<port id="0" precision="FP32"/>
			</output>
		</layer>
		<layer id="23" name="2148215216205" type="Const" version="opset1">
			<data offset="44" size="4" shape="" element_type="f32"/>
			<output>
				<port id="0" precision="FP32"/>
			</output>
		</layer>
		<layer id="24" name="2905290915929" type="Const" version="opset1">
			<data offset="48" size="4" shape="" element_type="f32"/>
			<output>
				<port id="0" precision="FP32"/>
			</output>
		</layer>
		<layer id="25" name="2906291017333" type="Const" version="opset1">
			<data offset="52" size="4" shape="" element_type="f32"/>
			<output>
				<port id="0" precision="FP32"/>
			</output>
		</layer>
		<layer id="26" name="2907291117057" type="Const" version="opset1">
			<data offset="48" size="4" shape="" element_type="f32"/>
			<output>
				<port id="0" precision="FP32"/>
			</output>
		</layer>
		<layer id="27" name="2908291215803" type="Const" version="opset1">
			<data offset="52" size="4" shape="" element_type="f32"/>
			<output>
				<port id="0" precision="FP32"/>
			</output>
		</layer>
		<layer id="28" name="3575357917273" type="Const" version="opset1">
			<data offset="56" size="4" shape="" element_type="f32"/>
			<output>
				<port id="0" precision="FP32"/>
			</output>
		</layer>
		<layer id="29" name="3576358017300" type="Const" version="opset1">
			<data offset="60" size="4" shape="" element_type="f32"/>
			<output>
				<port id="0" precision="FP32"/>
			</output>
		</layer>
		<layer id="30" name="3577358117465" type="Const" version="opset1">
			<data offset="56" size="4" shape="" element_type="f32"/>
			<output>
				<port id="0" precision="FP32"/>
			</output>
		</layer>
		<layer id="31" name="3578358216865" type="Const" version="opset1">
			<data offset="60" size="4" shape="" element_type="f32"/>
			<output>
				<port id="0" precision="FP32"/>
			</output>
		</layer>
		<layer id="32" name="2225222916613" type="Const" version="opset1">
			<data offset="64" size="4" shape="" element_type="f32"/>
			<output>
				<port id="0" precision="FP32"/>
			</output>
		</layer>
		<layer id="33" name="2226223017006" type="Const" version="opset1">
			<data offset="68" size="4" shape="" element_type="f32"/>
			<output>
				<port id="0" precision="FP32"/>
			</output>
		</layer>
		<layer id="34" name="2227223116802" type="Const" version="opset1">
			<data offset="64" size="4" shape="" element_type="f32"/>
			<output>
				<port id="0" precision="FP32"/>
			</output>
		</layer>
		<layer id="35" name="2228223216592" type="Const" version="opset1">
			<data offset="68" size="4" shape="" element_type="f32"/>
			<output>
				<port id="0" precision="FP32"/>
			</output>
		</layer>
		<layer id="36" name="3585358917246" type="Const" version="opset1">
			<data offset="72" size="4" shape="" element_type="f32"/>
			<output>
				<port id="0" precision="FP32"/>
			</output>
		</layer>
		<layer id="37" name="3586359015659" type="Const" version="opset1">
			<data offset="76" size="4" shape="" element_type="f32"/>
			<output>
				<port id="0" precision="FP32"/>
			</output>
		</layer>
		<layer id="38" name="3587359116511" type="Const" version="opset1">
			<data offset="72" size="4" shape="" element_type="f32"/>
			<output>
				<port id="0" precision="FP32"/>
			</output>
		</layer>
		<layer id="39" name="3588359216400" type="Const" version="opset1">
			<data offset="76" size="4" shape="" element_type="f32"/>
			<output>
				<port id="0" precision="FP32"/>
			</output>
		</layer>
		<layer id="40" name="2695269916787" type="Const" version="opset1">
			<data offset="80" size="4" shape="" element_type="f32"/>
			<output>
				<port id="0" precision="FP32"/>
			</output>
		</layer>
		<layer id="41" name="2696270016628" type="Const" version="opset1">
			<data offset="84" size="4" shape="" element_type="f32"/>
			<output>
				<port id="0" precision="FP32"/>
			</output>
		</layer>
		<layer id="42" name="2697270117102" type="Const" version="opset1">
			<data offset="80" size="4" shape="" element_type="f32"/>
			<output>
				<port id="0" precision="FP32"/>
			</output>
		</layer>
		<layer id="43" name="2698270217117" type="Const" version="opset1">
			<data offset="84" size="4" shape="" element_type="f32"/>
			<output>
				<port id="0" precision="FP32"/>
			</output>
		</layer>
		<layer id="44" name="3615361915545" type="Const" version="opset1">
			<data offset="88" size="4" shape="" element_type="f32"/>
			<output>
				<port id="0" precision="FP32"/>
			</output>
		</layer>
		<layer id="45" name="3616362016835" type="Const" version="opset1">
			<data offset="92" size="4" shape="" element_type="f32"/>
			<output>
				<port id="0" precision="FP32"/>
			</output>
		</layer>
		<layer id="46" name="3617362117114" type="Const" version="opset1">
			<data offset="88" size="4" shape="" element_type="f32"/>
			<output>
				<port id="0" precision="FP32"/>
			</output>
		</layer>
		<layer id="47" name="3618362217279" type="Const" version="opset1">
			<data offset="92" size="4" shape="" element_type="f32"/>
			<output>
				<port id="0" precision="FP32"/>
			</output>
		</layer>
		<layer id="48" name="2705270917225" type="Const" version="opset1">
			<data offset="96" size="4" shape="" element_type="f32"/>
			<output>
				<port id="0" precision="FP32"/>
			</output>
		</layer>
		<layer id="49" name="2706271015965" type="Const" version="opset1">
			<data offset="100" size="4" shape="" element_type="f32"/>
			<output>
				<port id="0" precision="FP32"/>
			</output>
		</layer>
		<layer id="50" name="2707271115623" type="Const" version="opset1">
			<data offset="96" size="4" shape="" element_type="f32"/>
			<output>
				<port id="0" precision="FP32"/>
			</output>
		</layer>
		<layer id="51" name="2708271215917" type="Const" version="opset1">
			<data offset="100" size="4" shape="" element_type="f32"/>
			<output>
				<port id="0" precision="FP32"/>
			</output>
		</layer>
		<layer id="52" name="3195319915491" type="Const" version="opset1">
			<data offset="104" size="4" shape="" element_type="f32"/>
			<output>
				<port id="0" precision="FP32"/>
			</output>
		</layer>
		<layer id="53" name="3196320016211" type="Const" version="opset1">
			<data offset="108" size="4" shape="" element_type="f32"/>
			<output>
				<port id="0" precision="FP32"/>
			</output>
		</layer>
		<layer id="54" name="3197320116877" type="Const" version="opset1">
			<data offset="104" size="4" shape="" element_type="f32"/>
			<output>
				<port id="0" precision="FP32"/>
			</output>
		</layer>
		<layer id="55" name="3198320216448" type="Const" version="opset1">
			<data offset="108" size="4" shape="" element_type="f32"/>
			<output>
				<port id="0" precision="FP32"/>
			</output>
		</layer>
		<layer id="56" name="5148515216469" type="Const" version="opset1">
			<data offset="112" size="4" shape="" element_type="f32"/>
			<output>
				<port id="0" precision="FP32"/>
			</output>
		</layer>
		<layer id="57" name="5149515315668" type="Const" version="opset1">
			<data offset="116" size="4" shape="" element_type="f32"/>
			<output>
				<port id="0" precision="FP32"/>
			</output>
		</layer>
		<layer id="58" name="5150515415494" type="Const" version="opset1">
			<data offset="112" size="4" shape="" element_type="f32"/>
			<output>
				<port id="0" precision="FP32"/>
			</output>
		</layer>
		<layer id="59" name="5151515515557" type="Const" version="opset1">
			<data offset="116" size="4" shape="" element_type="f32"/>
			<output>
				<port id="0" precision="FP32"/>
			</output>
		</layer>
		<layer id="60" name="5338534216271" type="Const" version="opset1">
			<data offset="120" size="4" shape="" element_type="f32"/>
			<output>
				<port id="0" precision="FP32"/>
			</output>
		</layer>
		<layer id="61" name="5339534315896" type="Const" version="opset1">
			<data offset="124" size="4" shape="" element_type="f32"/>
			<output>
				<port id="0" precision="FP32"/>
			</output>
		</layer>
		<layer id="62" name="5340534416982" type="Const" version="opset1">
			<data offset="120" size="4" shape="" element_type="f32"/>
			<output>
				<port id="0" precision="FP32"/>
			</output>
		</layer>
		<layer id="63" name="5341534515989" type="Const" version="opset1">
			<data offset="124" size="4" shape="" element_type="f32"/>
			<output>
				<port id="0" precision="FP32"/>
			</output>
		</layer>
		<layer id="64" name="2915291916679" type="Const" version="opset1">
			<data offset="128" size="4" shape="" element_type="f32"/>
			<output>
				<port id="0" precision="FP32"/>
			</output>
		</layer>
		<layer id="65" name="2916292015761" type="Const" version="opset1">
			<data offset="132" size="4" shape="" element_type="f32"/>
			<output>
				<port id="0" precision="FP32"/>
			</output>
		</layer>
		<layer id="66" name="2917292117303" type="Const" version="opset1">
			<data offset="128" size="4" shape="" element_type="f32"/>
			<output>
				<port id="0" precision="FP32"/>
			</output>
		</layer>
		<layer id="67" name="2918292216817" type="Const" version="opset1">
			<data offset="132" size="4" shape="" element_type="f32"/>
			<output>
				<port id="0" precision="FP32"/>
			</output>
		</layer>
		<layer id="68" name="3475347916337" type="Const" version="opset1">
			<data offset="136" size="4" shape="" element_type="f32"/>
			<output>
				<port id="0" precision="FP32"/>
			</output>
		</layer>
		<layer id="69" name="3476348017075" type="Const" version="opset1">
			<data offset="140" size="4" shape="" element_type="f32"/>
			<output>
				<port id="0" precision="FP32"/>
			</output>
		</layer>
		<layer id="70" name="3477348116784" type="Const" version="opset1">
			<data offset="136" size="4" shape="" element_type="f32"/>
			<output>
				<port id="0" precision="FP32"/>
			</output>
		</layer>
		<layer id="71" name="3478348215641" type="Const" version="opset1">
			<data offset="140" size="4" shape="" element_type="f32"/>
			<output>
				<port id="0" precision="FP32"/>
			</output>
		</layer>
		<layer id="72" name="2925292917381" type="Const" version="opset1">
			<data offset="144" size="4" shape="" element_type="f32"/>
			<output>
				<port id="0" precision="FP32"/>
			</output>
		</layer>
		<layer id="73" name="2926293015902" type="Const" version="opset1">
			<data offset="148" size="4" shape="" element_type="f32"/>
			<output>
				<port id="0" precision="FP32"/>
			</output>
		</layer>
		<layer id="74" name="2927293115737" type="Const" version="opset1">
			<data offset="144" size="4" shape="" element_type="f32"/>
			<output>
				<port id="0" precision="FP32"/>
			</output>
		</layer>
		<layer id="75" name="2928293216247" type="Const" version="opset1">
			<data offset="148" size="4" shape="" element_type="f32"/>
			<output>
				<port id="0" precision="FP32"/>
			</output>
		</layer>
		<layer id="76" name="3095309915650" type="Const" version="opset1">
			<data offset="152" size="4" shape="" element_type="f32"/>
			<output>
				<port id="0" precision="FP32"/>
			</output>
		</layer>
		<layer id="77" name="3096310016439" type="Const" version="opset1">
			<data offset="156" size="4" shape="" element_type="f32"/>
			<output>
				<port id="0" precision="FP32"/>
			</output>
		</layer>
		<layer id="78" name="3097310115677" type="Const" version="opset1">
			<data offset="152" size="4" shape="" element_type="f32"/>
			<output>
				<port id="0" precision="FP32"/>
			</output>
		</layer>
		<layer id="79" name="3098310215626" type="Const" version="opset1">
			<data offset="156" size="4" shape="" element_type="f32"/>
			<output>
				<port id="0" precision="FP32"/>
			</output>
		</layer>
		<layer id="80" name="2655265916646" type="Const" version="opset1">
			<data offset="160" size="4" shape="" element_type="f32"/>
			<output>
				<port id="0" precision="FP32"/>
			</output>
		</layer>
		<layer id="81" name="2656266016568" type="Const" version="opset1">
			<data offset="164" size="4" shape="" element_type="f32"/>
			<output>
				<port id="0" precision="FP32"/>
			</output>
		</layer>
		<layer id="82" name="2657266116106" type="Const" version="opset1">
			<data offset="160" size="4" shape="" element_type="f32"/>
			<output>
				<port id="0" precision="FP32"/>
			</output>
		</layer>
		<layer id="83" name="2658266216157" type="Const" version="opset1">
			<data offset="164" size="4" shape="" element_type="f32"/>
			<output>
				<port id="0" precision="FP32"/>
			</output>
		</layer>
		<layer id="84" name="3105310915488" type="Const" version="opset1">
			<data offset="168" size="4" shape="" element_type="f32"/>
			<output>
				<port id="0" precision="FP32"/>
			</output>
		</layer>
		<layer id="85" name="3106311017324" type="Const" version="opset1">
			<data offset="172" size="4" shape="" element_type="f32"/>
			<output>
				<port id="0" precision="FP32"/>
			</output>
		</layer>
		<layer id="86" name="3107311116421" type="Const" version="opset1">
			<data offset="168" size="4" shape="" element_type="f32"/>
			<output>
				<port id="0" precision="FP32"/>
			</output>
		</layer>
		<layer id="87" name="3108311217432" type="Const" version="opset1">
			<data offset="172" size="4" shape="" element_type="f32"/>
			<output>
				<port id="0" precision="FP32"/>
			</output>
		</layer>
		<layer id="88" name="3715371915503" type="Const" version="opset1">
			<data offset="176" size="4" shape="" element_type="f32"/>
			<output>
				<port id="0" precision="FP32"/>
			</output>
		</layer>
		<layer id="89" name="3716372016343" type="Const" version="opset1">
			<data offset="180" size="4" shape="" element_type="f32"/>
			<output>
				<port id="0" precision="FP32"/>
			</output>
		</layer>
		<layer id="90" name="3717372116736" type="Const" version="opset1">
			<data offset="176" size="4" shape="" element_type="f32"/>
			<output>
				<port id="0" precision="FP32"/>
			</output>
		</layer>
		<layer id="91" name="3718372215473" type="Const" version="opset1">
			<data offset="180" size="4" shape="" element_type="f32"/>
			<output>
				<port id="0" precision="FP32"/>
			</output>
		</layer>
		<layer id="92" name="3555355916304" type="Const" version="opset1">
			<data offset="184" size="4" shape="" element_type="f32"/>
			<output>
				<port id="0" precision="FP32"/>
			</output>
		</layer>
		<layer id="93" name="3556356016964" type="Const" version="opset1">
			<data offset="188" size="4" shape="" element_type="f32"/>
			<output>
				<port id="0" precision="FP32"/>
			</output>
		</layer>
		<layer id="94" name="3557356117408" type="Const" version="opset1">
			<data offset="184" size="4" shape="" element_type="f32"/>
			<output>
				<port id="0" precision="FP32"/>
			</output>
		</layer>
		<layer id="95" name="3558356216292" type="Const" version="opset1">
			<data offset="188" size="4" shape="" element_type="f32"/>
			<output>
				<port id="0" precision="FP32"/>
			</output>
		</layer>
		<layer id="96" name="3725372916676" type="Const" version="opset1">
			<data offset="192" size="4" shape="" element_type="f32"/>
			<output>
				<port id="0" precision="FP32"/>
			</output>
		</layer>
		<layer id="97" name="3726373017348" type="Const" version="opset1">
			<data offset="196" size="4" shape="" element_type="f32"/>
			<output>
				<port id="0" precision="FP32"/>
			</output>
		</layer>
		<layer id="98" name="3727373117456" type="Const" version="opset1">
			<data offset="192" size="4" shape="" element_type="f32"/>
			<output>
				<port id="0" precision="FP32"/>
			</output>
		</layer>
		<layer id="99" name="3728373215671" type="Const" version="opset1">
			<data offset="196" size="4" shape="" element_type="f32"/>
			<output>
				<port id="0" precision="FP32"/>
			</output>
		</layer>
		<layer id="100" name="2555255916925" type="Const" version="opset1">
			<data offset="200" size="4" shape="" element_type="f32"/>
			<output>
				<port id="0" precision="FP32"/>
			</output>
		</layer>
		<layer id="101" name="2556256016232" type="Const" version="opset1">
			<data offset="204" size="4" shape="" element_type="f32"/>
			<output>
				<port id="0" precision="FP32"/>
			</output>
		</layer>
		<layer id="102" name="2557256116991" type="Const" version="opset1">
			<data offset="200" size="4" shape="" element_type="f32"/>
			<output>
				<port id="0" precision="FP32"/>
			</output>
		</layer>
		<layer id="103" name="2558256217240" type="Const" version="opset1">
			<data offset="204" size="4" shape="" element_type="f32"/>
			<output>
				<port id="0" precision="FP32"/>
			</output>
		</layer>
		<layer id="104" name="3535353917105" type="Const" version="opset1">
			<data offset="208" size="4" shape="" element_type="f32"/>
			<output>
				<port id="0" precision="FP32"/>
			</output>
		</layer>
		<layer id="105" name="3536354015665" type="Const" version="opset1">
			<data offset="212" size="4" shape="" element_type="f32"/>
			<output>
				<port id="0" precision="FP32"/>
			</output>
		</layer>
		<layer id="106" name="3537354115551" type="Const" version="opset1">
			<data offset="208" size="4" shape="" element_type="f32"/>
			<output>
				<port id="0" precision="FP32"/>
			</output>
		</layer>
		<layer id="107" name="3538354216916" type="Const" version="opset1">
			<data offset="212" size="4" shape="" element_type="f32"/>
			<output>
				<port id="0" precision="FP32"/>
			</output>
		</layer>
		<layer id="108" name="5318532215785" type="Const" version="opset1">
			<data offset="216" size="4" shape="" element_type="f32"/>
			<output>
				<port id="0" precision="FP32"/>
			</output>
		</layer>
		<layer id="109" name="5319532316547" type="Const" version="opset1">
			<data offset="220" size="4" shape="" element_type="f32"/>
			<output>
				<port id="0" precision="FP32"/>
			</output>
		</layer>
		<layer id="110" name="5320532415629" type="Const" version="opset1">
			<data offset="216" size="4" shape="" element_type="f32"/>
			<output>
				<port id="0" precision="FP32"/>
			</output>
		</layer>
		<layer id="111" name="5321532516127" type="Const" version="opset1">
			<data offset="220" size="4" shape="" element_type="f32"/>
			<output>
				<port id="0" precision="FP32"/>
			</output>
		</layer>
		<layer id="112" name="2385238917237" type="Const" version="opset1">
			<data offset="224" size="4" shape="" element_type="f32"/>
			<output>
				<port id="0" precision="FP32"/>
			</output>
		</layer>
		<layer id="113" name="2386239016379" type="Const" version="opset1">
			<data offset="228" size="4" shape="" element_type="f32"/>
			<output>
				<port id="0" precision="FP32"/>
			</output>
		</layer>
		<layer id="114" name="2387239115845" type="Const" version="opset1">
			<data offset="224" size="4" shape="" element_type="f32"/>
			<output>
				<port id="0" precision="FP32"/>
			</output>
		</layer>
		<layer id="115" name="2388239216556" type="Const" version="opset1">
			<data offset="228" size="4" shape="" element_type="f32"/>
			<output>
				<port id="0" precision="FP32"/>
			</output>
		</layer>
		<layer id="116" name="2595259915686" type="Const" version="opset1">
			<data offset="232" size="4" shape="" element_type="f32"/>
			<output>
				<port id="0" precision="FP32"/>
			</output>
		</layer>
		<layer id="117" name="2596260016928" type="Const" version="opset1">
			<data offset="236" size="4" shape="" element_type="f32"/>
			<output>
				<port id="0" precision="FP32"/>
			</output>
		</layer>
		<layer id="118" name="2597260115836" type="Const" version="opset1">
			<data offset="232" size="4" shape="" element_type="f32"/>
			<output>
				<port id="0" precision="FP32"/>
			</output>
		</layer>
		<layer id="119" name="2598260217537" type="Const" version="opset1">
			<data offset="236" size="4" shape="" element_type="f32"/>
			<output>
				<port id="0" precision="FP32"/>
			</output>
		</layer>
		<layer id="120" name="2395239916331" type="Const" version="opset1">
			<data offset="240" size="4" shape="" element_type="f32"/>
			<output>
				<port id="0" precision="FP32"/>
			</output>
		</layer>
		<layer id="121" name="2396240016055" type="Const" version="opset1">
			<data offset="244" size="4" shape="" element_type="f32"/>
			<output>
				<port id="0" precision="FP32"/>
			</output>
		</layer>
		<layer id="122" name="2397240117231" type="Const" version="opset1">
			<data offset="240" size="4" shape="" element_type="f32"/>
			<output>
				<port id="0" precision="FP32"/>
			</output>
		</layer>
		<layer id="123" name="2398240216739" type="Const" version="opset1">
			<data offset="244" size="4" shape="" element_type="f32"/>
			<output>
				<port id="0" precision="FP32"/>
			</output>
		</layer>
		<layer id="124" name="3885388917078" type="Const" version="opset1">
			<data offset="248" size="4" shape="" element_type="f32"/>
			<output>
				<port id="0" precision="FP32"/>
			</output>
		</layer>
		<layer id="125" name="3886389016727" type="Const" version="opset1">
			<data offset="252" size="4" shape="" element_type="f32"/>
			<output>
				<port id="0" precision="FP32"/>
			</output>
		</layer>
		<layer id="126" name="3887389117069" type="Const" version="opset1">
			<data offset="248" size="4" shape="" element_type="f32"/>
			<output>
				<port id="0" precision="FP32"/>
			</output>
		</layer>
		<layer id="127" name="3888389215728" type="Const" version="opset1">
			<data offset="252" size="4" shape="" element_type="f32"/>
			<output>
				<port id="0" precision="FP32"/>
			</output>
		</layer>
		<layer id="128" name="2715271915581" type="Const" version="opset1">
			<data offset="256" size="4" shape="" element_type="f32"/>
			<output>
				<port id="0" precision="FP32"/>
			</output>
		</layer>
		<layer id="129" name="2716272015695" type="Const" version="opset1">
			<data offset="260" size="4" shape="" element_type="f32"/>
			<output>
				<port id="0" precision="FP32"/>
			</output>
		</layer>
		<layer id="130" name="2717272116034" type="Const" version="opset1">
			<data offset="256" size="4" shape="" element_type="f32"/>
			<output>
				<port id="0" precision="FP32"/>
			</output>
		</layer>
		<layer id="131" name="2718272216424" type="Const" version="opset1">
			<data offset="260" size="4" shape="" element_type="f32"/>
			<output>
				<port id="0" precision="FP32"/>
			</output>
		</layer>
		<layer id="132" name="5048505215632" type="Const" version="opset1">
			<data offset="264" size="4" shape="" element_type="f32"/>
			<output>
				<port id="0" precision="FP32"/>
			</output>
		</layer>
		<layer id="133" name="5049505316010" type="Const" version="opset1">
			<data offset="268" size="4" shape="" element_type="f32"/>
			<output>
				<port id="0" precision="FP32"/>
			</output>
		</layer>
		<layer id="134" name="5050505416883" type="Const" version="opset1">
			<data offset="264" size="4" shape="" element_type="f32"/>
			<output>
				<port id="0" precision="FP32"/>
			</output>
		</layer>
		<layer id="135" name="5051505516058" type="Const" version="opset1">
			<data offset="268" size="4" shape="" element_type="f32"/>
			<output>
				<port id="0" precision="FP32"/>
			</output>
		</layer>
		<layer id="137" name="467/fq_input_0" type="FakeQuantize" version="opset1">
			<data levels="256" auto_broadcast="numpy"/>
			<input>
				<port id="0">
					<dim>1</dim>
					<dim>3</dim>
					<dim>416</dim>
					<dim>416</dim>
				</port>
				<port id="1"/>
				<port id="2"/>
				<port id="3"/>
				<port id="4"/>
			</input>
			<output>
				<port id="5" precision="FP32">
					<dim>1</dim>
					<dim>3</dim>
					<dim>416</dim>
					<dim>416</dim>
				</port>
			</output>
		</layer>
		<layer id="138" name="Constant_8797685" type="Const" version="opset1">
			<data offset="272" size="24" shape="3" element_type="i64"/>
			<rt_info>
				<attribute name="fused_names" version="0" value="497"/>
			</rt_info>
			<output>
				<port id="0" precision="I64">
					<dim>3</dim>
				</port>
			</output>
		</layer>
		<layer id="139" name="Constant_8800686" type="Const" version="opset1">
			<data offset="296" size="24" shape="3" element_type="i64"/>
			<rt_info>
				<attribute name="fused_names" version="0" value="497"/>
			</rt_info>
			<output>
				<port id="0" precision="I64">
					<dim>3</dim>
				</port>
			</output>
		</layer>
		<layer id="140" name="Constant_8803687" type="Const" version="opset1">
			<data offset="320" size="24" shape="3" element_type="i64"/>
			<rt_info>
				<attribute name="fused_names" version="0" value="497"/>
			</rt_info>
			<output>
				<port id="0" precision="I64">
					<dim>3</dim>
				</port>
			</output>
		</layer>
		<layer id="141" name="497" type="StridedSlice" version="opset1">
			<data begin_mask="1,1,0" end_mask="1,1,0" new_axis_mask="0,0,0" shrink_axis_mask="0,0,0" ellipsis_mask="0,0,0"/>
			<rt_info>
				<attribute name="fused_names" version="0" value="497"/>
			</rt_info>
			<input>
				<port id="0">
					<dim>1</dim>
					<dim>3</dim>
					<dim>416</dim>
					<dim>416</dim>
				</port>
				<port id="1">
					<dim>3</dim>
				</port>
				<port id="2">
					<dim>3</dim>
				</port>
				<port id="3">
					<dim>3</dim>
				</port>
			</input>
			<output>
				<port id="4" precision="FP32" names="497">
					<dim>1</dim>
					<dim>3</dim>
					<dim>208</dim>
					<dim>416</dim>
				</port>
			</output>
		</layer>
		<layer id="142" name="Constant_8809689" type="Const" version="opset1">
			<data offset="344" size="32" shape="4" element_type="i64"/>
			<rt_info>
				<attribute name="fused_names" version="0" value="502"/>
			</rt_info>
			<output>
				<port id="0" precision="I64">
					<dim>4</dim>
				</port>
			</output>
		</layer>
		<layer id="143" name="Constant_8812690" type="Const" version="opset1">
			<data offset="376" size="32" shape="4" element_type="i64"/>
			<rt_info>
				<attribute name="fused_names" version="0" value="502"/>
			</rt_info>
			<output>
				<port id="0" precision="I64">
					<dim>4</dim>
				</port>
			</output>
		</layer>
		<layer id="144" name="Constant_8815691" type="Const" version="opset1">
			<data offset="408" size="32" shape="4" element_type="i64"/>
			<rt_info>
				<attribute name="fused_names" version="0" value="502"/>
			</rt_info>
			<output>
				<port id="0" precision="I64">
					<dim>4</dim>
				</port>
			</output>
		</layer>
		<layer id="145" name="502" type="StridedSlice" version="opset1">
			<data begin_mask="1,1,1,0" end_mask="1,1,1,0" new_axis_mask="0,0,0,0" shrink_axis_mask="0,0,0,0" ellipsis_mask="0,0,0,0"/>
			<rt_info>
				<attribute name="fused_names" version="0" value="502"/>
			</rt_info>
			<input>
				<port id="0">
					<dim>1</dim>
					<dim>3</dim>
					<dim>208</dim>
					<dim>416</dim>
				</port>
				<port id="1">
					<dim>4</dim>
				</port>
				<port id="2">
					<dim>4</dim>
				</port>
				<port id="3">
					<dim>4</dim>
				</port>
			</input>
			<output>
				<port id="4" precision="FP32" names="502">
					<dim>1</dim>
					<dim>3</dim>
					<dim>208</dim>
					<dim>208</dim>
				</port>
			</output>
		</layer>
		<layer id="146" name="Constant_8773677" type="Const" version="opset1">
			<data offset="440" size="24" shape="3" element_type="i64"/>
			<rt_info>
				<attribute name="fused_names" version="0" value="477"/>
			</rt_info>
			<output>
				<port id="0" precision="I64">
					<dim>3</dim>
				</port>
			</output>
		</layer>
		<layer id="147" name="Constant_8776678" type="Const" version="opset1">
			<data offset="296" size="24" shape="3" element_type="i64"/>
			<rt_info>
				<attribute name="fused_names" version="0" value="477"/>
			</rt_info>
			<output>
				<port id="0" precision="I64">
					<dim>3</dim>
				</port>
			</output>
		</layer>
		<layer id="148" name="Constant_8779679" type="Const" version="opset1">
			<data offset="320" size="24" shape="3" element_type="i64"/>
			<rt_info>
				<attribute name="fused_names" version="0" value="477"/>
			</rt_info>
			<output>
				<port id="0" precision="I64">
					<dim>3</dim>
				</port>
			</output>
		</layer>
		<layer id="149" name="477" type="StridedSlice" version="opset1">
			<data begin_mask="1,1,0" end_mask="1,1,0" new_axis_mask="0,0,0" shrink_axis_mask="0,0,0" ellipsis_mask="0,0,0"/>
			<rt_info>
				<attribute name="fused_names" version="0" value="477"/>
			</rt_info>
			<input>
				<port id="0">
					<dim>1</dim>
					<dim>3</dim>
					<dim>416</dim>
					<dim>416</dim>
				</port>
				<port id="1">
					<dim>3</dim>
				</port>
				<port id="2">
					<dim>3</dim>
				</port>
				<port id="3">
					<dim>3</dim>
				</port>
			</input>
			<output>
				<port id="4" precision="FP32" names="477">
					<dim>1</dim>
					<dim>3</dim>
					<dim>208</dim>
					<dim>416</dim>
				</port>
			</output>
		</layer>
		<layer id="150" name="Constant_8785681" type="Const" version="opset1">
			<data offset="344" size="32" shape="4" element_type="i64"/>
			<rt_info>
				<attribute name="fused_names" version="0" value="482"/>
			</rt_info>
			<output>
				<port id="0" precision="I64">
					<dim>4</dim>
				</port>
			</output>
		</layer>
		<layer id="151" name="Constant_8788682" type="Const" version="opset1">
			<data offset="376" size="32" shape="4" element_type="i64"/>
			<rt_info>
				<attribute name="fused_names" version="0" value="482"/>
			</rt_info>
			<output>
				<port id="0" precision="I64">
					<dim>4</dim>
				</port>
			</output>
		</layer>
		<layer id="152" name="Constant_8791683" type="Const" version="opset1">
			<data offset="408" size="32" shape="4" element_type="i64"/>
			<rt_info>
				<attribute name="fused_names" version="0" value="482"/>
			</rt_info>
			<output>
				<port id="0" precision="I64">
					<dim>4</dim>
				</port>
			</output>
		</layer>
		<layer id="153" name="482" type="StridedSlice" version="opset1">
			<data begin_mask="1,1,1,0" end_mask="1,1,1,0" new_axis_mask="0,0,0,0" shrink_axis_mask="0,0,0,0" ellipsis_mask="0,0,0,0"/>
			<rt_info>
				<attribute name="fused_names" version="0" value="482"/>
			</rt_info>
			<input>
				<port id="0">
					<dim>1</dim>
					<dim>3</dim>
					<dim>208</dim>
					<dim>416</dim>
				</port>
				<port id="1">
					<dim>4</dim>
				</port>
				<port id="2">
					<dim>4</dim>
				</port>
				<port id="3">
					<dim>4</dim>
				</port>
			</input>
			<output>
				<port id="4" precision="FP32" names="482">
					<dim>1</dim>
					<dim>3</dim>
					<dim>208</dim>
					<dim>208</dim>
				</port>
			</output>
		</layer>
		<layer id="154" name="Constant_8749669" type="Const" version="opset1">
			<data offset="272" size="24" shape="3" element_type="i64"/>
			<rt_info>
				<attribute name="fused_names" version="0" value="487"/>
			</rt_info>
			<output>
				<port id="0" precision="I64">
					<dim>3</dim>
				</port>
			</output>
		</layer>
		<layer id="155" name="Constant_8752670" type="Const" version="opset1">
			<data offset="296" size="24" shape="3" element_type="i64"/>
			<rt_info>
				<attribute name="fused_names" version="0" value="487"/>
			</rt_info>
			<output>
				<port id="0" precision="I64">
					<dim>3</dim>
				</port>
			</output>
		</layer>
		<layer id="156" name="Constant_8755671" type="Const" version="opset1">
			<data offset="320" size="24" shape="3" element_type="i64"/>
			<rt_info>
				<attribute name="fused_names" version="0" value="487"/>
			</rt_info>
			<output>
				<port id="0" precision="I64">
					<dim>3</dim>
				</port>
			</output>
		</layer>
		<layer id="157" name="487" type="StridedSlice" version="opset1">
			<data begin_mask="1,1,0" end_mask="1,1,0" new_axis_mask="0,0,0" shrink_axis_mask="0,0,0" ellipsis_mask="0,0,0"/>
			<rt_info>
				<attribute name="fused_names" version="0" value="487"/>
			</rt_info>
			<input>
				<port id="0">
					<dim>1</dim>
					<dim>3</dim>
					<dim>416</dim>
					<dim>416</dim>
				</port>
				<port id="1">
					<dim>3</dim>
				</port>
				<port id="2">
					<dim>3</dim>
				</port>
				<port id="3">
					<dim>3</dim>
				</port>
			</input>
			<output>
				<port id="4" precision="FP32" names="487">
					<dim>1</dim>
					<dim>3</dim>
					<dim>208</dim>
					<dim>416</dim>
				</port>
			</output>
		</layer>
		<layer id="158" name="Constant_8761673" type="Const" version="opset1">
			<data offset="464" size="32" shape="4" element_type="i64"/>
			<rt_info>
				<attribute name="fused_names" version="0" value="492"/>
			</rt_info>
			<output>
				<port id="0" precision="I64">
					<dim>4</dim>
				</port>
			</output>
		</layer>
		<layer id="159" name="Constant_8764674" type="Const" version="opset1">
			<data offset="376" size="32" shape="4" element_type="i64"/>
			<rt_info>
				<attribute name="fused_names" version="0" value="492"/>
			</rt_info>
			<output>
				<port id="0" precision="I64">
					<dim>4</dim>
				</port>
			</output>
		</layer>
		<layer id="160" name="Constant_8767675" type="Const" version="opset1">
			<data offset="408" size="32" shape="4" element_type="i64"/>
			<rt_info>
				<attribute name="fused_names" version="0" value="492"/>
			</rt_info>
			<output>
				<port id="0" precision="I64">
					<dim>4</dim>
				</port>
			</output>
		</layer>
		<layer id="161" name="492" type="StridedSlice" version="opset1">
			<data begin_mask="1,1,1,0" end_mask="1,1,1,0" new_axis_mask="0,0,0,0" shrink_axis_mask="0,0,0,0" ellipsis_mask="0,0,0,0"/>
			<rt_info>
				<attribute name="fused_names" version="0" value="492"/>
			</rt_info>
			<input>
				<port id="0">
					<dim>1</dim>
					<dim>3</dim>
					<dim>208</dim>
					<dim>416</dim>
				</port>
				<port id="1">
					<dim>4</dim>
				</port>
				<port id="2">
					<dim>4</dim>
				</port>
				<port id="3">
					<dim>4</dim>
				</port>
			</input>
			<output>
				<port id="4" precision="FP32" names="492">
					<dim>1</dim>
					<dim>3</dim>
					<dim>208</dim>
					<dim>208</dim>
				</port>
			</output>
		</layer>
		<layer id="162" name="Constant_8725661" type="Const" version="opset1">
			<data offset="440" size="24" shape="3" element_type="i64"/>
			<rt_info>
				<attribute name="fused_names" version="0" value="467"/>
			</rt_info>
			<output>
				<port id="0" precision="I64">
					<dim>3</dim>
				</port>
			</output>
		</layer>
		<layer id="163" name="Constant_8728662" type="Const" version="opset1">
			<data offset="296" size="24" shape="3" element_type="i64"/>
			<rt_info>
				<attribute name="fused_names" version="0" value="467"/>
			</rt_info>
			<output>
				<port id="0" precision="I64">
					<dim>3</dim>
				</port>
			</output>
		</layer>
		<layer id="164" name="Constant_8731663" type="Const" version="opset1">
			<data offset="320" size="24" shape="3" element_type="i64"/>
			<rt_info>
				<attribute name="fused_names" version="0" value="467"/>
			</rt_info>
			<output>
				<port id="0" precision="I64">
					<dim>3</dim>
				</port>
			</output>
		</layer>
		<layer id="165" name="467" type="StridedSlice" version="opset1">
			<data begin_mask="1,1,0" end_mask="1,1,0" new_axis_mask="0,0,0" shrink_axis_mask="0,0,0" ellipsis_mask="0,0,0"/>
			<rt_info>
				<attribute name="fused_names" version="0" value="467"/>
			</rt_info>
			<input>
				<port id="0">
					<dim>1</dim>
					<dim>3</dim>
					<dim>416</dim>
					<dim>416</dim>
				</port>
				<port id="1">
					<dim>3</dim>
				</port>
				<port id="2">
					<dim>3</dim>
				</port>
				<port id="3">
					<dim>3</dim>
				</port>
			</input>
			<output>
				<port id="4" precision="FP32" names="467">
					<dim>1</dim>
					<dim>3</dim>
					<dim>208</dim>
					<dim>416</dim>
				</port>
			</output>
		</layer>
		<layer id="166" name="Constant_8737665" type="Const" version="opset1">
			<data offset="464" size="32" shape="4" element_type="i64"/>
			<rt_info>
				<attribute name="fused_names" version="0" value="472"/>
			</rt_info>
			<output>
				<port id="0" precision="I64">
					<dim>4</dim>
				</port>
			</output>
		</layer>
		<layer id="167" name="Constant_8740666" type="Const" version="opset1">
			<data offset="376" size="32" shape="4" element_type="i64"/>
			<rt_info>
				<attribute name="fused_names" version="0" value="472"/>
			</rt_info>
			<output>
				<port id="0" precision="I64">
					<dim>4</dim>
				</port>
			</output>
		</layer>
		<layer id="168" name="Constant_8743667" type="Const" version="opset1">
			<data offset="408" size="32" shape="4" element_type="i64"/>
			<rt_info>
				<attribute name="fused_names" version="0" value="472"/>
			</rt_info>
			<output>
				<port id="0" precision="I64">
					<dim>4</dim>
				</port>
			</output>
		</layer>
		<layer id="169" name="472" type="StridedSlice" version="opset1">
			<data begin_mask="1,1,1,0" end_mask="1,1,1,0" new_axis_mask="0,0,0,0" shrink_axis_mask="0,0,0,0" ellipsis_mask="0,0,0,0"/>
			<rt_info>
				<attribute name="fused_names" version="0" value="472"/>
			</rt_info>
			<input>
				<port id="0">
					<dim>1</dim>
					<dim>3</dim>
					<dim>208</dim>
					<dim>416</dim>
				</port>
				<port id="1">
					<dim>4</dim>
				</port>
				<port id="2">
					<dim>4</dim>
				</port>
				<port id="3">
					<dim>4</dim>
				</port>
			</input>
			<output>
				<port id="4" precision="FP32" names="472">
					<dim>1</dim>
					<dim>3</dim>
					<dim>208</dim>
					<dim>208</dim>
				</port>
			</output>
		</layer>
		<layer id="170" name="503" type="Concat" version="opset1">
			<data axis="1"/>
			<rt_info>
				<attribute name="fused_names" version="0" value="503"/>
			</rt_info>
			<input>
				<port id="0">
					<dim>1</dim>
					<dim>3</dim>
					<dim>208</dim>
					<dim>208</dim>
				</port>
				<port id="1">
					<dim>1</dim>
					<dim>3</dim>
					<dim>208</dim>
					<dim>208</dim>
				</port>
				<port id="2">
					<dim>1</dim>
					<dim>3</dim>
					<dim>208</dim>
					<dim>208</dim>
				</port>
				<port id="3">
					<dim>1</dim>
					<dim>3</dim>
					<dim>208</dim>
					<dim>208</dim>
				</port>
			</input>
			<output>
				<port id="4" precision="FP32" names="503">
					<dim>1</dim>
					<dim>12</dim>
					<dim>208</dim>
					<dim>208</dim>
				</port>
			</output>
		</layer>
		<layer id="171" name="8786958949/restored_convert/quantized1171715713" type="Const" version="opset1">
			<data offset="496" size="3456" shape="32,12,3,3" element_type="i8"/>
			<output>
				<port id="0" precision="I8">
					<dim>32</dim>
					<dim>12</dim>
					<dim>3</dim>
					<dim>3</dim>
				</port>
			</output>
		</layer>
		<layer id="172" name="8786958949/restored_convert/quantized/to_f32" type="Convert" version="opset1">
			<data destination_type="f32"/>
			<input>
				<port id="0">
					<dim>32</dim>
					<dim>12</dim>
					<dim>3</dim>
					<dim>3</dim>
				</port>
			</input>
			<output>
				<port id="1" precision="FP32">
					<dim>32</dim>
					<dim>12</dim>
					<dim>3</dim>
					<dim>3</dim>
				</port>
			</output>
		</layer>
		<layer id="173" name="Convolution_187/fq_weights_1/zero_point1173616028" type="Const" version="opset1">
			<data offset="3952" size="128" shape="32,1,1,1" element_type="f32"/>
			<output>
				<port id="0" precision="FP32">
					<dim>32</dim>
					<dim>1</dim>
					<dim>1</dim>
					<dim>1</dim>
				</port>
			</output>
		</layer>
		<layer id="174" name="Convolution_187/fq_weights_1/minus_zp" type="Subtract" version="opset1">
			<data auto_broadcast="numpy"/>
			<input>
				<port id="0">
					<dim>32</dim>
					<dim>12</dim>
					<dim>3</dim>
					<dim>3</dim>
				</port>
				<port id="1">
					<dim>32</dim>
					<dim>1</dim>
					<dim>1</dim>
					<dim>1</dim>
				</port>
			</input>
			<output>
				<port id="2" precision="FP32">
					<dim>32</dim>
					<dim>12</dim>
					<dim>3</dim>
					<dim>3</dim>
				</port>
			</output>
		</layer>
		<layer id="175" name="Convolution_187/fq_weights_1/scale1172516328" type="Const" version="opset1">
			<data offset="4080" size="128" shape="32,1,1,1" element_type="f32"/>
			<output>
				<port id="0" precision="FP32">
					<dim>32</dim>
					<dim>1</dim>
					<dim>1</dim>
					<dim>1</dim>
				</port>
			</output>
		</layer>
		<layer id="176" name="Convolution_187/fq_weights_1/mulpiply_by_scale" type="Multiply" version="opset1">
			<data auto_broadcast="numpy"/>
			<input>
				<port id="0">
					<dim>32</dim>
					<dim>12</dim>
					<dim>3</dim>
					<dim>3</dim>
				</port>
				<port id="1">
					<dim>32</dim>
					<dim>1</dim>
					<dim>1</dim>
					<dim>1</dim>
				</port>
			</input>
			<output>
				<port id="2" precision="FP32">
					<dim>32</dim>
					<dim>12</dim>
					<dim>3</dim>
					<dim>3</dim>
				</port>
			</output>
		</layer>
		<layer id="177" name="Convolution_187" type="Convolution" version="opset1">
			<data auto_pad="explicit" strides="1,1" dilations="1,1" pads_begin="1,1" pads_end="1,1"/>
			<rt_info>
				<attribute name="fused_names" version="0" value="Convolution_187"/>
			</rt_info>
			<input>
				<port id="0">
					<dim>1</dim>
					<dim>12</dim>
					<dim>208</dim>
					<dim>208</dim>
				</port>
				<port id="1">
					<dim>32</dim>
					<dim>12</dim>
					<dim>3</dim>
					<dim>3</dim>
				</port>
			</input>
			<output>
				<port id="2" precision="FP32">
					<dim>1</dim>
					<dim>32</dim>
					<dim>208</dim>
					<dim>208</dim>
				</port>
			</output>
		</layer>
		<layer id="178" name="Reshape_20769815605" type="Const" version="opset1">
			<data offset="4208" size="64" shape="1,32,1,1" element_type="f16"/>
			<output>
				<port id="0" precision="FP16">
					<dim>1</dim>
					<dim>32</dim>
					<dim>1</dim>
					<dim>1</dim>
				</port>
			</output>
		</layer>
		<layer id="179" name="Reshape_2076988950/restored_convert" type="Convert" version="opset1">
			<data destination_type="f32"/>
			<rt_info>
				<attribute name="decompression" version="0"/>
			</rt_info>
			<input>
				<port id="0">
					<dim>1</dim>
					<dim>32</dim>
					<dim>1</dim>
					<dim>1</dim>
				</port>
			</input>
			<output>
				<port id="1" precision="FP32">
					<dim>1</dim>
					<dim>32</dim>
					<dim>1</dim>
					<dim>1</dim>
				</port>
			</output>
		</layer>
		<layer id="180" name="877" type="Add" version="opset1">
			<data auto_broadcast="numpy"/>
			<rt_info>
				<attribute name="fused_names" version="0" value="877, Concat_206, Reshape_207"/>
			</rt_info>
			<input>
				<port id="0">
					<dim>1</dim>
					<dim>32</dim>
					<dim>208</dim>
					<dim>208</dim>
				</port>
				<port id="1">
					<dim>1</dim>
					<dim>32</dim>
					<dim>1</dim>
					<dim>1</dim>
				</port>
			</input>
			<output>
				<port id="2" precision="FP32" names="877">
					<dim>1</dim>
					<dim>32</dim>
					<dim>208</dim>
					<dim>208</dim>
				</port>
			</output>
		</layer>
		<layer id="181" name="507" type="Swish" version="opset4">
			<rt_info>
				<attribute name="fused_names" version="0" value="506, 507"/>
			</rt_info>
			<input>
				<port id="0">
					<dim>1</dim>
					<dim>32</dim>
					<dim>208</dim>
					<dim>208</dim>
				</port>
			</input>
			<output>
				<port id="1" precision="FP32" names="507">
					<dim>1</dim>
					<dim>32</dim>
					<dim>208</dim>
					<dim>208</dim>
				</port>
			</output>
		</layer>
		<layer id="182" name="Convolution_237/fq_input_0" type="FakeQuantize" version="opset1">
			<data levels="256" auto_broadcast="numpy"/>
			<input>
				<port id="0">
					<dim>1</dim>
					<dim>32</dim>
					<dim>208</dim>
					<dim>208</dim>
				</port>
				<port id="1"/>
				<port id="2"/>
				<port id="3"/>
				<port id="4"/>
			</input>
			<output>
				<port id="5" precision="FP32">
					<dim>1</dim>
					<dim>32</dim>
					<dim>208</dim>
					<dim>208</dim>
				</port>
			</output>
		</layer>
		<layer id="183" name="8817028951/restored_convert/quantized1129716418" type="Const" version="opset1">
			<data offset="4272" size="18432" shape="64,32,3,3" element_type="i8"/>
			<output>
				<port id="0" precision="I8">
					<dim>64</dim>
					<dim>32</dim>
					<dim>3</dim>
					<dim>3</dim>
				</port>
			</output>
		</layer>
		<layer id="184" name="8817028951/restored_convert/quantized/to_f32" type="Convert" version="opset1">
			<data destination_type="f32"/>
			<input>
				<port id="0">
					<dim>64</dim>
					<dim>32</dim>
					<dim>3</dim>
					<dim>3</dim>
				</port>
			</input>
			<output>
				<port id="1" precision="FP32">
					<dim>64</dim>
					<dim>32</dim>
					<dim>3</dim>
					<dim>3</dim>
				</port>
			</output>
		</layer>
		<layer id="185" name="Convolution_237/fq_weights_1/zero_point1131617036" type="Const" version="opset1">
			<data offset="22704" size="256" shape="64,1,1,1" element_type="f32"/>
			<output>
				<port id="0" precision="FP32">
					<dim>64</dim>
					<dim>1</dim>
					<dim>1</dim>
					<dim>1</dim>
				</port>
			</output>
		</layer>
		<layer id="186" name="Convolution_237/fq_weights_1/minus_zp" type="Subtract" version="opset1">
			<data auto_broadcast="numpy"/>
			<input>
				<port id="0">
					<dim>64</dim>
					<dim>32</dim>
					<dim>3</dim>
					<dim>3</dim>
				</port>
				<port id="1">
					<dim>64</dim>
					<dim>1</dim>
					<dim>1</dim>
					<dim>1</dim>
				</port>
			</input>
			<output>
				<port id="2" precision="FP32">
					<dim>64</dim>
					<dim>32</dim>
					<dim>3</dim>
					<dim>3</dim>
				</port>
			</output>
		</layer>
		<layer id="187" name="Convolution_237/fq_weights_1/scale1130517489" type="Const" version="opset1">
			<data offset="22960" size="256" shape="64,1,1,1" element_type="f32"/>
			<output>
				<port id="0" precision="FP32">
					<dim>64</dim>
					<dim>1</dim>
					<dim>1</dim>
					<dim>1</dim>
				</port>
			</output>
		</layer>
		<layer id="188" name="Convolution_237/fq_weights_1/mulpiply_by_scale" type="Multiply" version="opset1">
			<data auto_broadcast="numpy"/>
			<input>
				<port id="0">
					<dim>64</dim>
					<dim>32</dim>
					<dim>3</dim>
					<dim>3</dim>
				</port>
				<port id="1">
					<dim>64</dim>
					<dim>1</dim>
					<dim>1</dim>
					<dim>1</dim>
				</port>
			</input>
			<output>
				<port id="2" precision="FP32">
					<dim>64</dim>
					<dim>32</dim>
					<dim>3</dim>
					<dim>3</dim>
				</port>
			</output>
		</layer>
		<layer id="189" name="Convolution_237" type="Convolution" version="opset1">
			<data auto_pad="explicit" strides="2,2" dilations="1,1" pads_begin="1,1" pads_end="1,1"/>
			<rt_info>
				<attribute name="fused_names" version="0" value="Convolution_237"/>
			</rt_info>
			<input>
				<port id="0">
					<dim>1</dim>
					<dim>32</dim>
					<dim>208</dim>
					<dim>208</dim>
				</port>
				<port id="1">
					<dim>64</dim>
					<dim>32</dim>
					<dim>3</dim>
					<dim>3</dim>
				</port>
			</input>
			<output>
				<port id="2" precision="FP32">
					<dim>1</dim>
					<dim>64</dim>
					<dim>104</dim>
					<dim>104</dim>
				</port>
			</output>
		</layer>
		<layer id="190" name="Reshape_25770517342" type="Const" version="opset1">
			<data offset="23216" size="128" shape="1,64,1,1" element_type="f16"/>
			<output>
				<port id="0" precision="FP16">
					<dim>1</dim>
					<dim>64</dim>
					<dim>1</dim>
					<dim>1</dim>
				</port>
			</output>
		</layer>
		<layer id="191" name="Reshape_2577058952/restored_convert" type="Convert" version="opset1">
			<data destination_type="f32"/>
			<rt_info>
				<attribute name="decompression" version="0"/>
			</rt_info>
			<input>
				<port id="0">
					<dim>1</dim>
					<dim>64</dim>
					<dim>1</dim>
					<dim>1</dim>
				</port>
			</input>
			<output>
				<port id="1" precision="FP32">
					<dim>1</dim>
					<dim>64</dim>
					<dim>1</dim>
					<dim>1</dim>
				</port>
			</output>
		</layer>
		<layer id="192" name="880" type="Add" version="opset1">
			<data auto_broadcast="numpy"/>
			<rt_info>
				<attribute name="fused_names" version="0" value="880, Concat_256, Reshape_257"/>
			</rt_info>
			<input>
				<port id="0">
					<dim>1</dim>
					<dim>64</dim>
					<dim>104</dim>
					<dim>104</dim>
				</port>
				<port id="1">
					<dim>1</dim>
					<dim>64</dim>
					<dim>1</dim>
					<dim>1</dim>
				</port>
			</input>
			<output>
				<port id="2" precision="FP32" names="880">
					<dim>1</dim>
					<dim>64</dim>
					<dim>104</dim>
					<dim>104</dim>
				</port>
			</output>
		</layer>
		<layer id="193" name="511" type="Swish" version="opset4">
			<rt_info>
				<attribute name="fused_names" version="0" value="510, 511"/>
			</rt_info>
			<input>
				<port id="0">
					<dim>1</dim>
					<dim>64</dim>
					<dim>104</dim>
					<dim>104</dim>
				</port>
			</input>
			<output>
				<port id="1" precision="FP32" names="511">
					<dim>1</dim>
					<dim>64</dim>
					<dim>104</dim>
					<dim>104</dim>
				</port>
			</output>
		</layer>
		<layer id="194" name="Convolution_287/fq_input_0" type="FakeQuantize" version="opset1">
			<data levels="256" auto_broadcast="numpy"/>
			<input>
				<port id="0">
					<dim>1</dim>
					<dim>64</dim>
					<dim>104</dim>
					<dim>104</dim>
				</port>
				<port id="1"/>
				<port id="2"/>
				<port id="3"/>
				<port id="4"/>
			</input>
			<output>
				<port id="5" precision="FP32">
					<dim>1</dim>
					<dim>64</dim>
					<dim>104</dim>
					<dim>104</dim>
				</port>
			</output>
		</layer>
		<layer id="195" name="8847098953/restored_convert/quantized1192716946" type="Const" version="opset1">
			<data offset="23344" size="2048" shape="32,64,1,1" element_type="i8"/>
			<output>
				<port id="0" precision="I8">
					<dim>32</dim>
					<dim>64</dim>
					<dim>1</dim>
					<dim>1</dim>
				</port>
			</output>
		</layer>
		<layer id="196" name="8847098953/restored_convert/quantized/to_f32" type="Convert" version="opset1">
			<data destination_type="f32"/>
			<input>
				<port id="0">
					<dim>32</dim>
					<dim>64</dim>
					<dim>1</dim>
					<dim>1</dim>
				</port>
			</input>
			<output>
				<port id="1" precision="FP32">
					<dim>32</dim>
					<dim>64</dim>
					<dim>1</dim>
					<dim>1</dim>
				</port>
			</output>
		</layer>
		<layer id="197" name="Convolution_287/fq_weights_1/zero_point1194615800" type="Const" version="opset1">
			<data offset="25392" size="128" shape="32,1,1,1" element_type="f32"/>
			<output>
				<port id="0" precision="FP32">
					<dim>32</dim>
					<dim>1</dim>
					<dim>1</dim>
					<dim>1</dim>
				</port>
			</output>
		</layer>
		<layer id="198" name="Convolution_287/fq_weights_1/minus_zp" type="Subtract" version="opset1">
			<data auto_broadcast="numpy"/>
			<input>
				<port id="0">
					<dim>32</dim>
					<dim>64</dim>
					<dim>1</dim>
					<dim>1</dim>
				</port>
				<port id="1">
					<dim>32</dim>
					<dim>1</dim>
					<dim>1</dim>
					<dim>1</dim>
				</port>
			</input>
			<output>
				<port id="2" precision="FP32">
					<dim>32</dim>
					<dim>64</dim>
					<dim>1</dim>
					<dim>1</dim>
				</port>
			</output>
		</layer>
		<layer id="199" name="Convolution_287/fq_weights_1/scale1193516874" type="Const" version="opset1">
			<data offset="25520" size="128" shape="32,1,1,1" element_type="f32"/>
			<output>
				<port id="0" precision="FP32">
					<dim>32</dim>
					<dim>1</dim>
					<dim>1</dim>
					<dim>1</dim>
				</port>
			</output>
		</layer>
		<layer id="200" name="Convolution_287/fq_weights_1/mulpiply_by_scale" type="Multiply" version="opset1">
			<data auto_broadcast="numpy"/>
			<input>
				<port id="0">
					<dim>32</dim>
					<dim>64</dim>
					<dim>1</dim>
					<dim>1</dim>
				</port>
				<port id="1">
					<dim>32</dim>
					<dim>1</dim>
					<dim>1</dim>
					<dim>1</dim>
				</port>
			</input>
			<output>
				<port id="2" precision="FP32">
					<dim>32</dim>
					<dim>64</dim>
					<dim>1</dim>
					<dim>1</dim>
				</port>
			</output>
		</layer>
		<layer id="201" name="Convolution_287" type="Convolution" version="opset1">
			<data auto_pad="explicit" strides="1,1" dilations="1,1" pads_begin="0,0" pads_end="0,0"/>
			<rt_info>
				<attribute name="fused_names" version="0" value="Convolution_287"/>
			</rt_info>
			<input>
				<port id="0">
					<dim>1</dim>
					<dim>64</dim>
					<dim>104</dim>
					<dim>104</dim>
				</port>
				<port id="1">
					<dim>32</dim>
					<dim>64</dim>
					<dim>1</dim>
					<dim>1</dim>
				</port>
			</input>
			<output>
				<port id="2" precision="FP32">
					<dim>1</dim>
					<dim>32</dim>
					<dim>104</dim>
					<dim>104</dim>
				</port>
			</output>
		</layer>
		<layer id="202" name="Reshape_30771217264" type="Const" version="opset1">
			<data offset="25648" size="64" shape="1,32,1,1" element_type="f16"/>
			<output>
				<port id="0" precision="FP16">
					<dim>1</dim>
					<dim>32</dim>
					<dim>1</dim>
					<dim>1</dim>
				</port>
			</output>
		</layer>
		<layer id="203" name="Reshape_3077128954/restored_convert" type="Convert" version="opset1">
			<data destination_type="f32"/>
			<rt_info>
				<attribute name="decompression" version="0"/>
			</rt_info>
			<input>
				<port id="0">
					<dim>1</dim>
					<dim>32</dim>
					<dim>1</dim>
					<dim>1</dim>
				</port>
			</input>
			<output>
				<port id="1" precision="FP32">
					<dim>1</dim>
					<dim>32</dim>
					<dim>1</dim>
					<dim>1</dim>
				</port>
			</output>
		</layer>
		<layer id="204" name="883" type="Add" version="opset1">
			<data auto_broadcast="numpy"/>
			<rt_info>
				<attribute name="fused_names" version="0" value="883, Concat_306, Reshape_307"/>
			</rt_info>
			<input>
				<port id="0">
					<dim>1</dim>
					<dim>32</dim>
					<dim>104</dim>
					<dim>104</dim>
				</port>
				<port id="1">
					<dim>1</dim>
					<dim>32</dim>
					<dim>1</dim>
					<dim>1</dim>
				</port>
			</input>
			<output>
				<port id="2" precision="FP32" names="883">
					<dim>1</dim>
					<dim>32</dim>
					<dim>104</dim>
					<dim>104</dim>
				</port>
			</output>
		</layer>
		<layer id="205" name="515" type="Swish" version="opset4">
			<rt_info>
				<attribute name="fused_names" version="0" value="514, 515"/>
			</rt_info>
			<input>
				<port id="0">
					<dim>1</dim>
					<dim>32</dim>
					<dim>104</dim>
					<dim>104</dim>
				</port>
			</input>
			<output>
				<port id="1" precision="FP32" names="515">
					<dim>1</dim>
					<dim>32</dim>
					<dim>104</dim>
					<dim>104</dim>
				</port>
			</output>
		</layer>
		<layer id="206" name="528/fq_input_1" type="FakeQuantize" version="opset1">
			<data levels="256" auto_broadcast="numpy"/>
			<input>
				<port id="0">
					<dim>1</dim>
					<dim>32</dim>
					<dim>104</dim>
					<dim>104</dim>
				</port>
				<port id="1"/>
				<port id="2"/>
				<port id="3"/>
				<port id="4"/>
			</input>
			<output>
				<port id="5" precision="FP32">
					<dim>1</dim>
					<dim>32</dim>
					<dim>104</dim>
					<dim>104</dim>
				</port>
			</output>
		</layer>
		<layer id="207" name="8907168955/restored_convert/quantized1081716310" type="Const" version="opset1">
			<data offset="25712" size="1024" shape="32,32,1,1" element_type="i8"/>
			<output>
				<port id="0" precision="I8">
					<dim>32</dim>
					<dim>32</dim>
					<dim>1</dim>
					<dim>1</dim>
				</port>
			</output>
		</layer>
		<layer id="208" name="8907168955/restored_convert/quantized/to_f32" type="Convert" version="opset1">
			<data destination_type="f32"/>
			<input>
				<port id="0">
					<dim>32</dim>
					<dim>32</dim>
					<dim>1</dim>
					<dim>1</dim>
				</port>
			</input>
			<output>
				<port id="1" precision="FP32">
					<dim>32</dim>
					<dim>32</dim>
					<dim>1</dim>
					<dim>1</dim>
				</port>
			</output>
		</layer>
		<layer id="209" name="Convolution_387/fq_weights_1/zero_point1083615563" type="Const" version="opset1">
			<data offset="26736" size="128" shape="32,1,1,1" element_type="f32"/>
			<output>
				<port id="0" precision="FP32">
					<dim>32</dim>
					<dim>1</dim>
					<dim>1</dim>
					<dim>1</dim>
				</port>
			</output>
		</layer>
		<layer id="210" name="Convolution_387/fq_weights_1/minus_zp" type="Subtract" version="opset1">
			<data auto_broadcast="numpy"/>
			<input>
				<port id="0">
					<dim>32</dim>
					<dim>32</dim>
					<dim>1</dim>
					<dim>1</dim>
				</port>
				<port id="1">
					<dim>32</dim>
					<dim>1</dim>
					<dim>1</dim>
					<dim>1</dim>
				</port>
			</input>
			<output>
				<port id="2" precision="FP32">
					<dim>32</dim>
					<dim>32</dim>
					<dim>1</dim>
					<dim>1</dim>
				</port>
			</output>
		</layer>
		<layer id="211" name="Convolution_387/fq_weights_1/scale1082517099" type="Const" version="opset1">
			<data offset="26864" size="128" shape="32,1,1,1" element_type="f32"/>
			<output>
				<port id="0" precision="FP32">
					<dim>32</dim>
					<dim>1</dim>
					<dim>1</dim>
					<dim>1</dim>
				</port>
			</output>
		</layer>
		<layer id="212" name="Convolution_387/fq_weights_1/mulpiply_by_scale" type="Multiply" version="opset1">
			<data auto_broadcast="numpy"/>
			<input>
				<port id="0">
					<dim>32</dim>
					<dim>32</dim>
					<dim>1</dim>
					<dim>1</dim>
				</port>
				<port id="1">
					<dim>32</dim>
					<dim>1</dim>
					<dim>1</dim>
					<dim>1</dim>
				</port>
			</input>
			<output>
				<port id="2" precision="FP32">
					<dim>32</dim>
					<dim>32</dim>
					<dim>1</dim>
					<dim>1</dim>
				</port>
			</output>
		</layer>
		<layer id="213" name="Convolution_387" type="Convolution" version="opset1">
			<data auto_pad="explicit" strides="1,1" dilations="1,1" pads_begin="0,0" pads_end="0,0"/>
			<rt_info>
				<attribute name="fused_names" version="0" value="Convolution_387"/>
			</rt_info>
			<input>
				<port id="0">
					<dim>1</dim>
					<dim>32</dim>
					<dim>104</dim>
					<dim>104</dim>
				</port>
				<port id="1">
					<dim>32</dim>
					<dim>32</dim>
					<dim>1</dim>
					<dim>1</dim>
				</port>
			</input>
			<output>
				<port id="2" precision="FP32">
					<dim>1</dim>
					<dim>32</dim>
					<dim>104</dim>
					<dim>104</dim>
				</port>
			</output>
		</layer>
		<layer id="214" name="Reshape_40771915689" type="Const" version="opset1">
			<data offset="26992" size="64" shape="1,32,1,1" element_type="f16"/>
			<output>
				<port id="0" precision="FP16">
					<dim>1</dim>
					<dim>32</dim>
					<dim>1</dim>
					<dim>1</dim>
				</port>
			</output>
		</layer>
		<layer id="215" name="Reshape_4077198956/restored_convert" type="Convert" version="opset1">
			<data destination_type="f32"/>
			<rt_info>
				<attribute name="decompression" version="0"/>
			</rt_info>
			<input>
				<port id="0">
					<dim>1</dim>
					<dim>32</dim>
					<dim>1</dim>
					<dim>1</dim>
				</port>
			</input>
			<output>
				<port id="1" precision="FP32">
					<dim>1</dim>
					<dim>32</dim>
					<dim>1</dim>
					<dim>1</dim>
				</port>
			</output>
		</layer>
		<layer id="216" name="889" type="Add" version="opset1">
			<data auto_broadcast="numpy"/>
			<rt_info>
				<attribute name="fused_names" version="0" value="889, Concat_406, Reshape_407"/>
			</rt_info>
			<input>
				<port id="0">
					<dim>1</dim>
					<dim>32</dim>
					<dim>104</dim>
					<dim>104</dim>
				</port>
				<port id="1">
					<dim>1</dim>
					<dim>32</dim>
					<dim>1</dim>
					<dim>1</dim>
				</port>
			</input>
			<output>
				<port id="2" precision="FP32" names="889">
					<dim>1</dim>
					<dim>32</dim>
					<dim>104</dim>
					<dim>104</dim>
				</port>
			</output>
		</layer>
		<layer id="217" name="523" type="Swish" version="opset4">
			<rt_info>
				<attribute name="fused_names" version="0" value="522, 523"/>
			</rt_info>
			<input>
				<port id="0">
					<dim>1</dim>
					<dim>32</dim>
					<dim>104</dim>
					<dim>104</dim>
				</port>
			</input>
			<output>
				<port id="1" precision="FP32" names="523">
					<dim>1</dim>
					<dim>32</dim>
					<dim>104</dim>
					<dim>104</dim>
				</port>
			</output>
		</layer>
		<layer id="218" name="Convolution_437/fq_input_0" type="FakeQuantize" version="opset1">
			<data levels="256" auto_broadcast="numpy"/>
			<input>
				<port id="0">
					<dim>1</dim>
					<dim>32</dim>
					<dim>104</dim>
					<dim>104</dim>
				</port>
				<port id="1"/>
				<port id="2"/>
				<port id="3"/>
				<port id="4"/>
			</input>
			<output>
				<port id="5" precision="FP32">
					<dim>1</dim>
					<dim>32</dim>
					<dim>104</dim>
					<dim>104</dim>
				</port>
			</output>
		</layer>
		<layer id="219" name="8937238957/restored_convert/quantized1246717162" type="Const" version="opset1">
			<data offset="27056" size="9216" shape="32,32,3,3" element_type="i8"/>
			<output>
				<port id="0" precision="I8">
					<dim>32</dim>
					<dim>32</dim>
					<dim>3</dim>
					<dim>3</dim>
				</port>
			</output>
		</layer>
		<layer id="220" name="8937238957/restored_convert/quantized/to_f32" type="Convert" version="opset1">
			<data destination_type="f32"/>
			<input>
				<port id="0">
					<dim>32</dim>
					<dim>32</dim>
					<dim>3</dim>
					<dim>3</dim>
				</port>
			</input>
			<output>
				<port id="1" precision="FP32">
					<dim>32</dim>
					<dim>32</dim>
					<dim>3</dim>
					<dim>3</dim>
				</port>
			</output>
		</layer>
		<layer id="221" name="Convolution_437/fq_weights_1/zero_point1248617354" type="Const" version="opset1">
			<data offset="36272" size="128" shape="32,1,1,1" element_type="f32"/>
			<output>
				<port id="0" precision="FP32">
					<dim>32</dim>
					<dim>1</dim>
					<dim>1</dim>
					<dim>1</dim>
				</port>
			</output>
		</layer>
		<layer id="222" name="Convolution_437/fq_weights_1/minus_zp" type="Subtract" version="opset1">
			<data auto_broadcast="numpy"/>
			<input>
				<port id="0">
					<dim>32</dim>
					<dim>32</dim>
					<dim>3</dim>
					<dim>3</dim>
				</port>
				<port id="1">
					<dim>32</dim>
					<dim>1</dim>
					<dim>1</dim>
					<dim>1</dim>
				</port>
			</input>
			<output>
				<port id="2" precision="FP32">
					<dim>32</dim>
					<dim>32</dim>
					<dim>3</dim>
					<dim>3</dim>
				</port>
			</output>
		</layer>
		<layer id="223" name="Convolution_437/fq_weights_1/scale1247515578" type="Const" version="opset1">
			<data offset="36400" size="128" shape="32,1,1,1" element_type="f32"/>
			<output>
				<port id="0" precision="FP32">
					<dim>32</dim>
					<dim>1</dim>
					<dim>1</dim>
					<dim>1</dim>
				</port>
			</output>
		</layer>
		<layer id="224" name="Convolution_437/fq_weights_1/mulpiply_by_scale" type="Multiply" version="opset1">
			<data auto_broadcast="numpy"/>
			<input>
				<port id="0">
					<dim>32</dim>
					<dim>32</dim>
					<dim>3</dim>
					<dim>3</dim>
				</port>
				<port id="1">
					<dim>32</dim>
					<dim>1</dim>
					<dim>1</dim>
					<dim>1</dim>
				</port>
			</input>
			<output>
				<port id="2" precision="FP32">
					<dim>32</dim>
					<dim>32</dim>
					<dim>3</dim>
					<dim>3</dim>
				</port>
			</output>
		</layer>
		<layer id="225" name="Convolution_437" type="Convolution" version="opset1">
			<data auto_pad="explicit" strides="1,1" dilations="1,1" pads_begin="1,1" pads_end="1,1"/>
			<rt_info>
				<attribute name="fused_names" version="0" value="Convolution_437"/>
			</rt_info>
			<input>
				<port id="0">
					<dim>1</dim>
					<dim>32</dim>
					<dim>104</dim>
					<dim>104</dim>
				</port>
				<port id="1">
					<dim>32</dim>
					<dim>32</dim>
					<dim>3</dim>
					<dim>3</dim>
				</port>
			</input>
			<output>
				<port id="2" precision="FP32">
					<dim>1</dim>
					<dim>32</dim>
					<dim>104</dim>
					<dim>104</dim>
				</port>
			</output>
		</layer>
		<layer id="226" name="Reshape_45772616637" type="Const" version="opset1">
			<data offset="36528" size="64" shape="1,32,1,1" element_type="f16"/>
			<output>
				<port id="0" precision="FP16">
					<dim>1</dim>
					<dim>32</dim>
					<dim>1</dim>
					<dim>1</dim>
				</port>
			</output>
		</layer>
		<layer id="227" name="Reshape_4577268958/restored_convert" type="Convert" version="opset1">
			<data destination_type="f32"/>
			<rt_info>
				<attribute name="decompression" version="0"/>
			</rt_info>
			<input>
				<port id="0">
					<dim>1</dim>
					<dim>32</dim>
					<dim>1</dim>
					<dim>1</dim>
				</port>
			</input>
			<output>
				<port id="1" precision="FP32">
					<dim>1</dim>
					<dim>32</dim>
					<dim>1</dim>
					<dim>1</dim>
				</port>
			</output>
		</layer>
		<layer id="228" name="892" type="Add" version="opset1">
			<data auto_broadcast="numpy"/>
			<rt_info>
				<attribute name="fused_names" version="0" value="892, Concat_456, Reshape_457"/>
			</rt_info>
			<input>
				<port id="0">
					<dim>1</dim>
					<dim>32</dim>
					<dim>104</dim>
					<dim>104</dim>
				</port>
				<port id="1">
					<dim>1</dim>
					<dim>32</dim>
					<dim>1</dim>
					<dim>1</dim>
				</port>
			</input>
			<output>
				<port id="2" precision="FP32" names="892">
					<dim>1</dim>
					<dim>32</dim>
					<dim>104</dim>
					<dim>104</dim>
				</port>
			</output>
		</layer>
		<layer id="229" name="527" type="Swish" version="opset4">
			<rt_info>
				<attribute name="fused_names" version="0" value="526, 527"/>
			</rt_info>
			<input>
				<port id="0">
					<dim>1</dim>
					<dim>32</dim>
					<dim>104</dim>
					<dim>104</dim>
				</port>
			</input>
			<output>
				<port id="1" precision="FP32" names="527">
					<dim>1</dim>
					<dim>32</dim>
					<dim>104</dim>
					<dim>104</dim>
				</port>
			</output>
		</layer>
		<layer id="230" name="528/fq_input_0" type="FakeQuantize" version="opset1">
			<data levels="256" auto_broadcast="numpy"/>
			<input>
				<port id="0">
					<dim>1</dim>
					<dim>32</dim>
					<dim>104</dim>
					<dim>104</dim>
				</port>
				<port id="1"/>
				<port id="2"/>
				<port id="3"/>
				<port id="4"/>
			</input>
			<output>
				<port id="5" precision="FP32">
					<dim>1</dim>
					<dim>32</dim>
					<dim>104</dim>
					<dim>104</dim>
				</port>
			</output>
		</layer>
		<layer id="231" name="528" type="Add" version="opset1">
			<data auto_broadcast="numpy"/>
			<rt_info>
				<attribute name="fused_names" version="0" value="528"/>
			</rt_info>
			<input>
				<port id="0">
					<dim>1</dim>
					<dim>32</dim>
					<dim>104</dim>
					<dim>104</dim>
				</port>
				<port id="1">
					<dim>1</dim>
					<dim>32</dim>
					<dim>104</dim>
					<dim>104</dim>
				</port>
			</input>
			<output>
				<port id="2" precision="FP32" names="528">
					<dim>1</dim>
					<dim>32</dim>
					<dim>104</dim>
					<dim>104</dim>
				</port>
			</output>
		</layer>
		<layer id="232" name="529/fq_input_0" type="FakeQuantize" version="opset1">
			<data levels="256" auto_broadcast="numpy"/>
			<input>
				<port id="0">
					<dim>1</dim>
					<dim>32</dim>
					<dim>104</dim>
					<dim>104</dim>
				</port>
				<port id="1"/>
				<port id="2"/>
				<port id="3"/>
				<port id="4"/>
			</input>
			<output>
				<port id="5" precision="FP32">
					<dim>1</dim>
					<dim>32</dim>
					<dim>104</dim>
					<dim>104</dim>
				</port>
			</output>
		</layer>
		<layer id="233" name="5328533215767" type="Const" version="opset1">
			<data offset="216" size="4" shape="" element_type="f32"/>
			<output>
				<port id="0" precision="FP32"/>
			</output>
		</layer>
		<layer id="234" name="5329533316094" type="Const" version="opset1">
			<data offset="220" size="4" shape="" element_type="f32"/>
			<output>
				<port id="0" precision="FP32"/>
			</output>
		</layer>
		<layer id="235" name="5330533416022" type="Const" version="opset1">
			<data offset="216" size="4" shape="" element_type="f32"/>
			<output>
				<port id="0" precision="FP32"/>
			</output>
		</layer>
		<layer id="236" name="5331533516907" type="Const" version="opset1">
			<data offset="220" size="4" shape="" element_type="f32"/>
			<output>
				<port id="0" precision="FP32"/>
			</output>
		</layer>
		<layer id="237" name="8877318959/restored_convert/quantized1201716577" type="Const" version="opset1">
			<data offset="36592" size="2048" shape="32,64,1,1" element_type="i8"/>
			<output>
				<port id="0" precision="I8">
					<dim>32</dim>
					<dim>64</dim>
					<dim>1</dim>
					<dim>1</dim>
				</port>
			</output>
		</layer>
		<layer id="238" name="8877318959/restored_convert/quantized/to_f32" type="Convert" version="opset1">
			<data destination_type="f32"/>
			<input>
				<port id="0">
					<dim>32</dim>
					<dim>64</dim>
					<dim>1</dim>
					<dim>1</dim>
				</port>
			</input>
			<output>
				<port id="1" precision="FP32">
					<dim>32</dim>
					<dim>64</dim>
					<dim>1</dim>
					<dim>1</dim>
				</port>
			</output>
		</layer>
		<layer id="239" name="Convolution_337/fq_weights_1/zero_point1203617039" type="Const" version="opset1">
			<data offset="38640" size="128" shape="32,1,1,1" element_type="f32"/>
			<output>
				<port id="0" precision="FP32">
					<dim>32</dim>
					<dim>1</dim>
					<dim>1</dim>
					<dim>1</dim>
				</port>
			</output>
		</layer>
		<layer id="240" name="Convolution_337/fq_weights_1/minus_zp" type="Subtract" version="opset1">
			<data auto_broadcast="numpy"/>
			<input>
				<port id="0">
					<dim>32</dim>
					<dim>64</dim>
					<dim>1</dim>
					<dim>1</dim>
				</port>
				<port id="1">
					<dim>32</dim>
					<dim>1</dim>
					<dim>1</dim>
					<dim>1</dim>
				</port>
			</input>
			<output>
				<port id="2" precision="FP32">
					<dim>32</dim>
					<dim>64</dim>
					<dim>1</dim>
					<dim>1</dim>
				</port>
			</output>
		</layer>
		<layer id="241" name="Convolution_337/fq_weights_1/scale1202516301" type="Const" version="opset1">
			<data offset="38768" size="128" shape="32,1,1,1" element_type="f32"/>
			<output>
				<port id="0" precision="FP32">
					<dim>32</dim>
					<dim>1</dim>
					<dim>1</dim>
					<dim>1</dim>
				</port>
			</output>
		</layer>
		<layer id="242" name="Convolution_337/fq_weights_1/mulpiply_by_scale" type="Multiply" version="opset1">
			<data auto_broadcast="numpy"/>
			<input>
				<port id="0">
					<dim>32</dim>
					<dim>64</dim>
					<dim>1</dim>
					<dim>1</dim>
				</port>
				<port id="1">
					<dim>32</dim>
					<dim>1</dim>
					<dim>1</dim>
					<dim>1</dim>
				</port>
			</input>
			<output>
				<port id="2" precision="FP32">
					<dim>32</dim>
					<dim>64</dim>
					<dim>1</dim>
					<dim>1</dim>
				</port>
			</output>
		</layer>
		<layer id="243" name="Convolution_337" type="Convolution" version="opset1">
			<data auto_pad="explicit" strides="1,1" dilations="1,1" pads_begin="0,0" pads_end="0,0"/>
			<rt_info>
				<attribute name="fused_names" version="0" value="Convolution_337"/>
			</rt_info>
			<input>
				<port id="0">
					<dim>1</dim>
					<dim>64</dim>
					<dim>104</dim>
					<dim>104</dim>
				</port>
				<port id="1">
					<dim>32</dim>
					<dim>64</dim>
					<dim>1</dim>
					<dim>1</dim>
				</port>
			</input>
			<output>
				<port id="2" precision="FP32">
					<dim>1</dim>
					<dim>32</dim>
					<dim>104</dim>
					<dim>104</dim>
				</port>
			</output>
		</layer>
		<layer id="244" name="Reshape_35773416586" type="Const" version="opset1">
			<data offset="38896" size="64" shape="1,32,1,1" element_type="f16"/>
			<output>
				<port id="0" precision="FP16">
					<dim>1</dim>
					<dim>32</dim>
					<dim>1</dim>
					<dim>1</dim>
				</port>
			</output>
		</layer>
		<layer id="245" name="Reshape_3577348960/restored_convert" type="Convert" version="opset1">
			<data destination_type="f32"/>
			<rt_info>
				<attribute name="decompression" version="0"/>
			</rt_info>
			<input>
				<port id="0">
					<dim>1</dim>
					<dim>32</dim>
					<dim>1</dim>
					<dim>1</dim>
				</port>
			</input>
			<output>
				<port id="1" precision="FP32">
					<dim>1</dim>
					<dim>32</dim>
					<dim>1</dim>
					<dim>1</dim>
				</port>
			</output>
		</layer>
		<layer id="246" name="886" type="Add" version="opset1">
			<data auto_broadcast="numpy"/>
			<rt_info>
				<attribute name="fused_names" version="0" value="886, Concat_356, Reshape_357"/>
			</rt_info>
			<input>
				<port id="0">
					<dim>1</dim>
					<dim>32</dim>
					<dim>104</dim>
					<dim>104</dim>
				</port>
				<port id="1">
					<dim>1</dim>
					<dim>32</dim>
					<dim>1</dim>
					<dim>1</dim>
				</port>
			</input>
			<output>
				<port id="2" precision="FP32" names="886">
					<dim>1</dim>
					<dim>32</dim>
					<dim>104</dim>
					<dim>104</dim>
				</port>
			</output>
		</layer>
		<layer id="247" name="519" type="Swish" version="opset4">
			<rt_info>
				<attribute name="fused_names" version="0" value="518, 519"/>
			</rt_info>
			<input>
				<port id="0">
					<dim>1</dim>
					<dim>32</dim>
					<dim>104</dim>
					<dim>104</dim>
				</port>
			</input>
			<output>
				<port id="1" precision="FP32" names="519">
					<dim>1</dim>
					<dim>32</dim>
					<dim>104</dim>
					<dim>104</dim>
				</port>
			</output>
		</layer>
		<layer id="248" name="529/fq_input_1" type="FakeQuantize" version="opset1">
			<data levels="256" auto_broadcast="numpy"/>
			<input>
				<port id="0">
					<dim>1</dim>
					<dim>32</dim>
					<dim>104</dim>
					<dim>104</dim>
				</port>
				<port id="1"/>
				<port id="2"/>
				<port id="3"/>
				<port id="4"/>
			</input>
			<output>
				<port id="5" precision="FP32">
					<dim>1</dim>
					<dim>32</dim>
					<dim>104</dim>
					<dim>104</dim>
				</port>
			</output>
		</layer>
		<layer id="249" name="529" type="Concat" version="opset1">
			<data axis="1"/>
			<rt_info>
				<attribute name="fused_names" version="0" value="529"/>
			</rt_info>
			<input>
				<port id="0">
					<dim>1</dim>
					<dim>32</dim>
					<dim>104</dim>
					<dim>104</dim>
				</port>
				<port id="1">
					<dim>1</dim>
					<dim>32</dim>
					<dim>104</dim>
					<dim>104</dim>
				</port>
			</input>
			<output>
				<port id="2" precision="FP32" names="529">
					<dim>1</dim>
					<dim>64</dim>
					<dim>104</dim>
					<dim>104</dim>
				</port>
			</output>
		</layer>
		<layer id="250" name="8967398961/restored_convert/quantized1117716799" type="Const" version="opset1">
			<data offset="38960" size="4096" shape="64,64,1,1" element_type="i8"/>
			<output>
				<port id="0" precision="I8">
					<dim>64</dim>
					<dim>64</dim>
					<dim>1</dim>
					<dim>1</dim>
				</port>
			</output>
		</layer>
		<layer id="251" name="8967398961/restored_convert/quantized/to_f32" type="Convert" version="opset1">
			<data destination_type="f32"/>
			<input>
				<port id="0">
					<dim>64</dim>
					<dim>64</dim>
					<dim>1</dim>
					<dim>1</dim>
				</port>
			</input>
			<output>
				<port id="1" precision="FP32">
					<dim>64</dim>
					<dim>64</dim>
					<dim>1</dim>
					<dim>1</dim>
				</port>
			</output>
		</layer>
		<layer id="252" name="Convolution_489/fq_weights_1/zero_point1119615770" type="Const" version="opset1">
			<data offset="43056" size="256" shape="64,1,1,1" element_type="f32"/>
			<output>
				<port id="0" precision="FP32">
					<dim>64</dim>
					<dim>1</dim>
					<dim>1</dim>
					<dim>1</dim>
				</port>
			</output>
		</layer>
		<layer id="253" name="Convolution_489/fq_weights_1/minus_zp" type="Subtract" version="opset1">
			<data auto_broadcast="numpy"/>
			<input>
				<port id="0">
					<dim>64</dim>
					<dim>64</dim>
					<dim>1</dim>
					<dim>1</dim>
				</port>
				<port id="1">
					<dim>64</dim>
					<dim>1</dim>
					<dim>1</dim>
					<dim>1</dim>
				</port>
			</input>
			<output>
				<port id="2" precision="FP32">
					<dim>64</dim>
					<dim>64</dim>
					<dim>1</dim>
					<dim>1</dim>
				</port>
			</output>
		</layer>
		<layer id="254" name="Convolution_489/fq_weights_1/scale1118517123" type="Const" version="opset1">
			<data offset="43312" size="256" shape="64,1,1,1" element_type="f32"/>
			<output>
				<port id="0" precision="FP32">
					<dim>64</dim>
					<dim>1</dim>
					<dim>1</dim>
					<dim>1</dim>
				</port>
			</output>
		</layer>
		<layer id="255" name="Convolution_489/fq_weights_1/mulpiply_by_scale" type="Multiply" version="opset1">
			<data auto_broadcast="numpy"/>
			<input>
				<port id="0">
					<dim>64</dim>
					<dim>64</dim>
					<dim>1</dim>
					<dim>1</dim>
				</port>
				<port id="1">
					<dim>64</dim>
					<dim>1</dim>
					<dim>1</dim>
					<dim>1</dim>
				</port>
			</input>
			<output>
				<port id="2" precision="FP32">
					<dim>64</dim>
					<dim>64</dim>
					<dim>1</dim>
					<dim>1</dim>
				</port>
			</output>
		</layer>
		<layer id="256" name="Convolution_489" type="Convolution" version="opset1">
			<data auto_pad="explicit" strides="1,1" dilations="1,1" pads_begin="0,0" pads_end="0,0"/>
			<rt_info>
				<attribute name="fused_names" version="0" value="Convolution_489"/>
			</rt_info>
			<input>
				<port id="0">
					<dim>1</dim>
					<dim>64</dim>
					<dim>104</dim>
					<dim>104</dim>
				</port>
				<port id="1">
					<dim>64</dim>
					<dim>64</dim>
					<dim>1</dim>
					<dim>1</dim>
				</port>
			</input>
			<output>
				<port id="2" precision="FP32">
					<dim>1</dim>
					<dim>64</dim>
					<dim>104</dim>
					<dim>104</dim>
				</port>
			</output>
		</layer>
		<layer id="257" name="Reshape_50974216949" type="Const" version="opset1">
			<data offset="43568" size="128" shape="1,64,1,1" element_type="f16"/>
			<output>
				<port id="0" precision="FP16">
					<dim>1</dim>
					<dim>64</dim>
					<dim>1</dim>
					<dim>1</dim>
				</port>
			</output>
		</layer>
		<layer id="258" name="Reshape_5097428962/restored_convert" type="Convert" version="opset1">
			<data destination_type="f32"/>
			<rt_info>
				<attribute name="decompression" version="0"/>
			</rt_info>
			<input>
				<port id="0">
					<dim>1</dim>
					<dim>64</dim>
					<dim>1</dim>
					<dim>1</dim>
				</port>
			</input>
			<output>
				<port id="1" precision="FP32">
					<dim>1</dim>
					<dim>64</dim>
					<dim>1</dim>
					<dim>1</dim>
				</port>
			</output>
		</layer>
		<layer id="259" name="895" type="Add" version="opset1">
			<data auto_broadcast="numpy"/>
			<rt_info>
				<attribute name="fused_names" version="0" value="895, Concat_508, Reshape_509"/>
			</rt_info>
			<input>
				<port id="0">
					<dim>1</dim>
					<dim>64</dim>
					<dim>104</dim>
					<dim>104</dim>
				</port>
				<port id="1">
					<dim>1</dim>
					<dim>64</dim>
					<dim>1</dim>
					<dim>1</dim>
				</port>
			</input>
			<output>
				<port id="2" precision="FP32" names="895">
					<dim>1</dim>
					<dim>64</dim>
					<dim>104</dim>
					<dim>104</dim>
				</port>
			</output>
		</layer>
		<layer id="260" name="533" type="Swish" version="opset4">
			<rt_info>
				<attribute name="fused_names" version="0" value="532, 533"/>
			</rt_info>
			<input>
				<port id="0">
					<dim>1</dim>
					<dim>64</dim>
					<dim>104</dim>
					<dim>104</dim>
				</port>
			</input>
			<output>
				<port id="1" precision="FP32" names="533">
					<dim>1</dim>
					<dim>64</dim>
					<dim>104</dim>
					<dim>104</dim>
				</port>
			</output>
		</layer>
		<layer id="261" name="Convolution_539/fq_input_0" type="FakeQuantize" version="opset1">
			<data levels="256" auto_broadcast="numpy"/>
			<input>
				<port id="0">
					<dim>1</dim>
					<dim>64</dim>
					<dim>104</dim>
					<dim>104</dim>
				</port>
				<port id="1"/>
				<port id="2"/>
				<port id="3"/>
				<port id="4"/>
			</input>
			<output>
				<port id="5" precision="FP32">
					<dim>1</dim>
					<dim>64</dim>
					<dim>104</dim>
					<dim>104</dim>
				</port>
			</output>
		</layer>
		<layer id="262" name="8997468963/restored_convert/quantized1015716997" type="Const" version="opset1">
			<data offset="43696" size="73728" shape="128,64,3,3" element_type="i8"/>
			<output>
				<port id="0" precision="I8">
					<dim>128</dim>
					<dim>64</dim>
					<dim>3</dim>
					<dim>3</dim>
				</port>
			</output>
		</layer>
		<layer id="263" name="8997468963/restored_convert/quantized/to_f32" type="Convert" version="opset1">
			<data destination_type="f32"/>
			<input>
				<port id="0">
					<dim>128</dim>
					<dim>64</dim>
					<dim>3</dim>
					<dim>3</dim>
				</port>
			</input>
			<output>
				<port id="1" precision="FP32">
					<dim>128</dim>
					<dim>64</dim>
					<dim>3</dim>
					<dim>3</dim>
				</port>
			</output>
		</layer>
		<layer id="264" name="Convolution_539/fq_weights_1/zero_point1017617141" type="Const" version="opset1">
			<data offset="117424" size="512" shape="128,1,1,1" element_type="f32"/>
			<output>
				<port id="0" precision="FP32">
					<dim>128</dim>
					<dim>1</dim>
					<dim>1</dim>
					<dim>1</dim>
				</port>
			</output>
		</layer>
		<layer id="265" name="Convolution_539/fq_weights_1/minus_zp" type="Subtract" version="opset1">
			<data auto_broadcast="numpy"/>
			<input>
				<port id="0">
					<dim>128</dim>
					<dim>64</dim>
					<dim>3</dim>
					<dim>3</dim>
				</port>
				<port id="1">
					<dim>128</dim>
					<dim>1</dim>
					<dim>1</dim>
					<dim>1</dim>
				</port>
			</input>
			<output>
				<port id="2" precision="FP32">
					<dim>128</dim>
					<dim>64</dim>
					<dim>3</dim>
					<dim>3</dim>
				</port>
			</output>
		</layer>
		<layer id="266" name="Convolution_539/fq_weights_1/scale1016515530" type="Const" version="opset1">
			<data offset="117936" size="512" shape="128,1,1,1" element_type="f32"/>
			<output>
				<port id="0" precision="FP32">
					<dim>128</dim>
					<dim>1</dim>
					<dim>1</dim>
					<dim>1</dim>
				</port>
			</output>
		</layer>
		<layer id="267" name="Convolution_539/fq_weights_1/mulpiply_by_scale" type="Multiply" version="opset1">
			<data auto_broadcast="numpy"/>
			<input>
				<port id="0">
					<dim>128</dim>
					<dim>64</dim>
					<dim>3</dim>
					<dim>3</dim>
				</port>
				<port id="1">
					<dim>128</dim>
					<dim>1</dim>
					<dim>1</dim>
					<dim>1</dim>
				</port>
			</input>
			<output>
				<port id="2" precision="FP32">
					<dim>128</dim>
					<dim>64</dim>
					<dim>3</dim>
					<dim>3</dim>
				</port>
			</output>
		</layer>
		<layer id="268" name="Convolution_539" type="Convolution" version="opset1">
			<data auto_pad="explicit" strides="2,2" dilations="1,1" pads_begin="1,1" pads_end="1,1"/>
			<rt_info>
				<attribute name="fused_names" version="0" value="Convolution_539"/>
			</rt_info>
			<input>
				<port id="0">
					<dim>1</dim>
					<dim>64</dim>
					<dim>104</dim>
					<dim>104</dim>
				</port>
				<port id="1">
					<dim>128</dim>
					<dim>64</dim>
					<dim>3</dim>
					<dim>3</dim>
				</port>
			</input>
			<output>
				<port id="2" precision="FP32">
					<dim>1</dim>
					<dim>128</dim>
					<dim>52</dim>
					<dim>52</dim>
				</port>
			</output>
		</layer>
		<layer id="269" name="Reshape_55974916046" type="Const" version="opset1">
			<data offset="118448" size="256" shape="1,128,1,1" element_type="f16"/>
			<output>
				<port id="0" precision="FP16">
					<dim>1</dim>
					<dim>128</dim>
					<dim>1</dim>
					<dim>1</dim>
				</port>
			</output>
		</layer>
		<layer id="270" name="Reshape_5597498964/restored_convert" type="Convert" version="opset1">
			<data destination_type="f32"/>
			<rt_info>
				<attribute name="decompression" version="0"/>
			</rt_info>
			<input>
				<port id="0">
					<dim>1</dim>
					<dim>128</dim>
					<dim>1</dim>
					<dim>1</dim>
				</port>
			</input>
			<output>
				<port id="1" precision="FP32">
					<dim>1</dim>
					<dim>128</dim>
					<dim>1</dim>
					<dim>1</dim>
				</port>
			</output>
		</layer>
		<layer id="271" name="898" type="Add" version="opset1">
			<data auto_broadcast="numpy"/>
			<rt_info>
				<attribute name="fused_names" version="0" value="898, Concat_558, Reshape_559"/>
			</rt_info>
			<input>
				<port id="0">
					<dim>1</dim>
					<dim>128</dim>
					<dim>52</dim>
					<dim>52</dim>
				</port>
				<port id="1">
					<dim>1</dim>
					<dim>128</dim>
					<dim>1</dim>
					<dim>1</dim>
				</port>
			</input>
			<output>
				<port id="2" precision="FP32" names="898">
					<dim>1</dim>
					<dim>128</dim>
					<dim>52</dim>
					<dim>52</dim>
				</port>
			</output>
		</layer>
		<layer id="272" name="537" type="Swish" version="opset4">
			<rt_info>
				<attribute name="fused_names" version="0" value="536, 537"/>
			</rt_info>
			<input>
				<port id="0">
					<dim>1</dim>
					<dim>128</dim>
					<dim>52</dim>
					<dim>52</dim>
				</port>
			</input>
			<output>
				<port id="1" precision="FP32" names="537">
					<dim>1</dim>
					<dim>128</dim>
					<dim>52</dim>
					<dim>52</dim>
				</port>
			</output>
		</layer>
		<layer id="273" name="Convolution_589/fq_input_0" type="FakeQuantize" version="opset1">
			<data levels="256" auto_broadcast="numpy"/>
			<input>
				<port id="0">
					<dim>1</dim>
					<dim>128</dim>
					<dim>52</dim>
					<dim>52</dim>
				</port>
				<port id="1"/>
				<port id="2"/>
				<port id="3"/>
				<port id="4"/>
			</input>
			<output>
				<port id="5" precision="FP32">
					<dim>1</dim>
					<dim>128</dim>
					<dim>52</dim>
					<dim>52</dim>
				</port>
			</output>
		</layer>
		<layer id="274" name="9027538965/restored_convert/quantized1168716616" type="Const" version="opset1">
			<data offset="118704" size="8192" shape="64,128,1,1" element_type="i8"/>
			<output>
				<port id="0" precision="I8">
					<dim>64</dim>
					<dim>128</dim>
					<dim>1</dim>
					<dim>1</dim>
				</port>
			</output>
		</layer>
		<layer id="275" name="9027538965/restored_convert/quantized/to_f32" type="Convert" version="opset1">
			<data destination_type="f32"/>
			<input>
				<port id="0">
					<dim>64</dim>
					<dim>128</dim>
					<dim>1</dim>
					<dim>1</dim>
				</port>
			</input>
			<output>
				<port id="1" precision="FP32">
					<dim>64</dim>
					<dim>128</dim>
					<dim>1</dim>
					<dim>1</dim>
				</port>
			</output>
		</layer>
		<layer id="276" name="Convolution_589/fq_weights_1/zero_point1170617483" type="Const" version="opset1">
			<data offset="126896" size="256" shape="64,1,1,1" element_type="f32"/>
			<output>
				<port id="0" precision="FP32">
					<dim>64</dim>
					<dim>1</dim>
					<dim>1</dim>
					<dim>1</dim>
				</port>
			</output>
		</layer>
		<layer id="277" name="Convolution_589/fq_weights_1/minus_zp" type="Subtract" version="opset1">
			<data auto_broadcast="numpy"/>
			<input>
				<port id="0">
					<dim>64</dim>
					<dim>128</dim>
					<dim>1</dim>
					<dim>1</dim>
				</port>
				<port id="1">
					<dim>64</dim>
					<dim>1</dim>
					<dim>1</dim>
					<dim>1</dim>
				</port>
			</input>
			<output>
				<port id="2" precision="FP32">
					<dim>64</dim>
					<dim>128</dim>
					<dim>1</dim>
					<dim>1</dim>
				</port>
			</output>
		</layer>
		<layer id="278" name="Convolution_589/fq_weights_1/scale1169515644" type="Const" version="opset1">
			<data offset="127152" size="256" shape="64,1,1,1" element_type="f32"/>
			<output>
				<port id="0" precision="FP32">
					<dim>64</dim>
					<dim>1</dim>
					<dim>1</dim>
					<dim>1</dim>
				</port>
			</output>
		</layer>
		<layer id="279" name="Convolution_589/fq_weights_1/mulpiply_by_scale" type="Multiply" version="opset1">
			<data auto_broadcast="numpy"/>
			<input>
				<port id="0">
					<dim>64</dim>
					<dim>128</dim>
					<dim>1</dim>
					<dim>1</dim>
				</port>
				<port id="1">
					<dim>64</dim>
					<dim>1</dim>
					<dim>1</dim>
					<dim>1</dim>
				</port>
			</input>
			<output>
				<port id="2" precision="FP32">
					<dim>64</dim>
					<dim>128</dim>
					<dim>1</dim>
					<dim>1</dim>
				</port>
			</output>
		</layer>
		<layer id="280" name="Convolution_589" type="Convolution" version="opset1">
			<data auto_pad="explicit" strides="1,1" dilations="1,1" pads_begin="0,0" pads_end="0,0"/>
			<rt_info>
				<attribute name="fused_names" version="0" value="Convolution_589"/>
			</rt_info>
			<input>
				<port id="0">
					<dim>1</dim>
					<dim>128</dim>
					<dim>52</dim>
					<dim>52</dim>
				</port>
				<port id="1">
					<dim>64</dim>
					<dim>128</dim>
					<dim>1</dim>
					<dim>1</dim>
				</port>
			</input>
			<output>
				<port id="2" precision="FP32">
					<dim>1</dim>
					<dim>64</dim>
					<dim>52</dim>
					<dim>52</dim>
				</port>
			</output>
		</layer>
		<layer id="281" name="Reshape_60975617243" type="Const" version="opset1">
			<data offset="127408" size="128" shape="1,64,1,1" element_type="f16"/>
			<output>
				<port id="0" precision="FP16">
					<dim>1</dim>
					<dim>64</dim>
					<dim>1</dim>
					<dim>1</dim>
				</port>
			</output>
		</layer>
		<layer id="282" name="Reshape_6097568966/restored_convert" type="Convert" version="opset1">
			<data destination_type="f32"/>
			<rt_info>
				<attribute name="decompression" version="0"/>
			</rt_info>
			<input>
				<port id="0">
					<dim>1</dim>
					<dim>64</dim>
					<dim>1</dim>
					<dim>1</dim>
				</port>
			</input>
			<output>
				<port id="1" precision="FP32">
					<dim>1</dim>
					<dim>64</dim>
					<dim>1</dim>
					<dim>1</dim>
				</port>
			</output>
		</layer>
		<layer id="283" name="901" type="Add" version="opset1">
			<data auto_broadcast="numpy"/>
			<rt_info>
				<attribute name="fused_names" version="0" value="901, Concat_608, Reshape_609"/>
			</rt_info>
			<input>
				<port id="0">
					<dim>1</dim>
					<dim>64</dim>
					<dim>52</dim>
					<dim>52</dim>
				</port>
				<port id="1">
					<dim>1</dim>
					<dim>64</dim>
					<dim>1</dim>
					<dim>1</dim>
				</port>
			</input>
			<output>
				<port id="2" precision="FP32" names="901">
					<dim>1</dim>
					<dim>64</dim>
					<dim>52</dim>
					<dim>52</dim>
				</port>
			</output>
		</layer>
		<layer id="284" name="541" type="Swish" version="opset4">
			<rt_info>
				<attribute name="fused_names" version="0" value="540, 541"/>
			</rt_info>
			<input>
				<port id="0">
					<dim>1</dim>
					<dim>64</dim>
					<dim>52</dim>
					<dim>52</dim>
				</port>
			</input>
			<output>
				<port id="1" precision="FP32" names="541">
					<dim>1</dim>
					<dim>64</dim>
					<dim>52</dim>
					<dim>52</dim>
				</port>
			</output>
		</layer>
		<layer id="285" name="554/fq_input_1" type="FakeQuantize" version="opset1">
			<data levels="256" auto_broadcast="numpy"/>
			<input>
				<port id="0">
					<dim>1</dim>
					<dim>64</dim>
					<dim>52</dim>
					<dim>52</dim>
				</port>
				<port id="1"/>
				<port id="2"/>
				<port id="3"/>
				<port id="4"/>
			</input>
			<output>
				<port id="5" precision="FP32">
					<dim>1</dim>
					<dim>64</dim>
					<dim>52</dim>
					<dim>52</dim>
				</port>
			</output>
		</layer>
		<layer id="286" name="9087608967/restored_convert/quantized1198716481" type="Const" version="opset1">
			<data offset="127536" size="4096" shape="64,64,1,1" element_type="i8"/>
			<output>
				<port id="0" precision="I8">
					<dim>64</dim>
					<dim>64</dim>
					<dim>1</dim>
					<dim>1</dim>
				</port>
			</output>
		</layer>
		<layer id="287" name="9087608967/restored_convert/quantized/to_f32" type="Convert" version="opset1">
			<data destination_type="f32"/>
			<input>
				<port id="0">
					<dim>64</dim>
					<dim>64</dim>
					<dim>1</dim>
					<dim>1</dim>
				</port>
			</input>
			<output>
				<port id="1" precision="FP32">
					<dim>64</dim>
					<dim>64</dim>
					<dim>1</dim>
					<dim>1</dim>
				</port>
			</output>
		</layer>
		<layer id="288" name="Convolution_689/fq_weights_1/zero_point1200616520" type="Const" version="opset1">
			<data offset="131632" size="256" shape="64,1,1,1" element_type="f32"/>
			<output>
				<port id="0" precision="FP32">
					<dim>64</dim>
					<dim>1</dim>
					<dim>1</dim>
					<dim>1</dim>
				</port>
			</output>
		</layer>
		<layer id="289" name="Convolution_689/fq_weights_1/minus_zp" type="Subtract" version="opset1">
			<data auto_broadcast="numpy"/>
			<input>
				<port id="0">
					<dim>64</dim>
					<dim>64</dim>
					<dim>1</dim>
					<dim>1</dim>
				</port>
				<port id="1">
					<dim>64</dim>
					<dim>1</dim>
					<dim>1</dim>
					<dim>1</dim>
				</port>
			</input>
			<output>
				<port id="2" precision="FP32">
					<dim>64</dim>
					<dim>64</dim>
					<dim>1</dim>
					<dim>1</dim>
				</port>
			</output>
		</layer>
		<layer id="290" name="Convolution_689/fq_weights_1/scale1199517063" type="Const" version="opset1">
			<data offset="131888" size="256" shape="64,1,1,1" element_type="f32"/>
			<output>
				<port id="0" precision="FP32">
					<dim>64</dim>
					<dim>1</dim>
					<dim>1</dim>
					<dim>1</dim>
				</port>
			</output>
		</layer>
		<layer id="291" name="Convolution_689/fq_weights_1/mulpiply_by_scale" type="Multiply" version="opset1">
			<data auto_broadcast="numpy"/>
			<input>
				<port id="0">
					<dim>64</dim>
					<dim>64</dim>
					<dim>1</dim>
					<dim>1</dim>
				</port>
				<port id="1">
					<dim>64</dim>
					<dim>1</dim>
					<dim>1</dim>
					<dim>1</dim>
				</port>
			</input>
			<output>
				<port id="2" precision="FP32">
					<dim>64</dim>
					<dim>64</dim>
					<dim>1</dim>
					<dim>1</dim>
				</port>
			</output>
		</layer>
		<layer id="292" name="Convolution_689" type="Convolution" version="opset1">
			<data auto_pad="explicit" strides="1,1" dilations="1,1" pads_begin="0,0" pads_end="0,0"/>
			<rt_info>
				<attribute name="fused_names" version="0" value="Convolution_689"/>
			</rt_info>
			<input>
				<port id="0">
					<dim>1</dim>
					<dim>64</dim>
					<dim>52</dim>
					<dim>52</dim>
				</port>
				<port id="1">
					<dim>64</dim>
					<dim>64</dim>
					<dim>1</dim>
					<dim>1</dim>
				</port>
			</input>
			<output>
				<port id="2" precision="FP32">
					<dim>1</dim>
					<dim>64</dim>
					<dim>52</dim>
					<dim>52</dim>
				</port>
			</output>
		</layer>
		<layer id="293" name="Reshape_70976316901" type="Const" version="opset1">
			<data offset="132144" size="128" shape="1,64,1,1" element_type="f16"/>
			<output>
				<port id="0" precision="FP16">
					<dim>1</dim>
					<dim>64</dim>
					<dim>1</dim>
					<dim>1</dim>
				</port>
			</output>
		</layer>
		<layer id="294" name="Reshape_7097638968/restored_convert" type="Convert" version="opset1">
			<data destination_type="f32"/>
			<rt_info>
				<attribute name="decompression" version="0"/>
			</rt_info>
			<input>
				<port id="0">
					<dim>1</dim>
					<dim>64</dim>
					<dim>1</dim>
					<dim>1</dim>
				</port>
			</input>
			<output>
				<port id="1" precision="FP32">
					<dim>1</dim>
					<dim>64</dim>
					<dim>1</dim>
					<dim>1</dim>
				</port>
			</output>
		</layer>
		<layer id="295" name="907" type="Add" version="opset1">
			<data auto_broadcast="numpy"/>
			<rt_info>
				<attribute name="fused_names" version="0" value="907, Concat_708, Reshape_709"/>
			</rt_info>
			<input>
				<port id="0">
					<dim>1</dim>
					<dim>64</dim>
					<dim>52</dim>
					<dim>52</dim>
				</port>
				<port id="1">
					<dim>1</dim>
					<dim>64</dim>
					<dim>1</dim>
					<dim>1</dim>
				</port>
			</input>
			<output>
				<port id="2" precision="FP32" names="907">
					<dim>1</dim>
					<dim>64</dim>
					<dim>52</dim>
					<dim>52</dim>
				</port>
			</output>
		</layer>
		<layer id="296" name="549" type="Swish" version="opset4">
			<rt_info>
				<attribute name="fused_names" version="0" value="548, 549"/>
			</rt_info>
			<input>
				<port id="0">
					<dim>1</dim>
					<dim>64</dim>
					<dim>52</dim>
					<dim>52</dim>
				</port>
			</input>
			<output>
				<port id="1" precision="FP32" names="549">
					<dim>1</dim>
					<dim>64</dim>
					<dim>52</dim>
					<dim>52</dim>
				</port>
			</output>
		</layer>
		<layer id="297" name="Convolution_739/fq_input_0" type="FakeQuantize" version="opset1">
			<data levels="256" auto_broadcast="numpy"/>
			<input>
				<port id="0">
					<dim>1</dim>
					<dim>64</dim>
					<dim>52</dim>
					<dim>52</dim>
				</port>
				<port id="1"/>
				<port id="2"/>
				<port id="3"/>
				<port id="4"/>
			</input>
			<output>
				<port id="5" precision="FP32">
					<dim>1</dim>
					<dim>64</dim>
					<dim>52</dim>
					<dim>52</dim>
				</port>
			</output>
		</layer>
		<layer id="298" name="9117678969/restored_convert/quantized1033716259" type="Const" version="opset1">
			<data offset="132272" size="36864" shape="64,64,3,3" element_type="i8"/>
			<output>
				<port id="0" precision="I8">
					<dim>64</dim>
					<dim>64</dim>
					<dim>3</dim>
					<dim>3</dim>
				</port>
			</output>
		</layer>
		<layer id="299" name="9117678969/restored_convert/quantized/to_f32" type="Convert" version="opset1">
			<data destination_type="f32"/>
			<input>
				<port id="0">
					<dim>64</dim>
					<dim>64</dim>
					<dim>3</dim>
					<dim>3</dim>
				</port>
			</input>
			<output>
				<port id="1" precision="FP32">
					<dim>64</dim>
					<dim>64</dim>
					<dim>3</dim>
					<dim>3</dim>
				</port>
			</output>
		</layer>
		<layer id="300" name="Convolution_739/fq_weights_1/zero_point1035616340" type="Const" version="opset1">
			<data offset="169136" size="256" shape="64,1,1,1" element_type="f32"/>
			<output>
				<port id="0" precision="FP32">
					<dim>64</dim>
					<dim>1</dim>
					<dim>1</dim>
					<dim>1</dim>
				</port>
			</output>
		</layer>
		<layer id="301" name="Convolution_739/fq_weights_1/minus_zp" type="Subtract" version="opset1">
			<data auto_broadcast="numpy"/>
			<input>
				<port id="0">
					<dim>64</dim>
					<dim>64</dim>
					<dim>3</dim>
					<dim>3</dim>
				</port>
				<port id="1">
					<dim>64</dim>
					<dim>1</dim>
					<dim>1</dim>
					<dim>1</dim>
				</port>
			</input>
			<output>
				<port id="2" precision="FP32">
					<dim>64</dim>
					<dim>64</dim>
					<dim>3</dim>
					<dim>3</dim>
				</port>
			</output>
		</layer>
		<layer id="302" name="Convolution_739/fq_weights_1/scale1034516589" type="Const" version="opset1">
			<data offset="169392" size="256" shape="64,1,1,1" element_type="f32"/>
			<output>
				<port id="0" precision="FP32">
					<dim>64</dim>
					<dim>1</dim>
					<dim>1</dim>
					<dim>1</dim>
				</port>
			</output>
		</layer>
		<layer id="303" name="Convolution_739/fq_weights_1/mulpiply_by_scale" type="Multiply" version="opset1">
			<data auto_broadcast="numpy"/>
			<input>
				<port id="0">
					<dim>64</dim>
					<dim>64</dim>
					<dim>3</dim>
					<dim>3</dim>
				</port>
				<port id="1">
					<dim>64</dim>
					<dim>1</dim>
					<dim>1</dim>
					<dim>1</dim>
				</port>
			</input>
			<output>
				<port id="2" precision="FP32">
					<dim>64</dim>
					<dim>64</dim>
					<dim>3</dim>
					<dim>3</dim>
				</port>
			</output>
		</layer>
		<layer id="304" name="Convolution_739" type="Convolution" version="opset1">
			<data auto_pad="explicit" strides="1,1" dilations="1,1" pads_begin="1,1" pads_end="1,1"/>
			<rt_info>
				<attribute name="fused_names" version="0" value="Convolution_739"/>
			</rt_info>
			<input>
				<port id="0">
					<dim>1</dim>
					<dim>64</dim>
					<dim>52</dim>
					<dim>52</dim>
				</port>
				<port id="1">
					<dim>64</dim>
					<dim>64</dim>
					<dim>3</dim>
					<dim>3</dim>
				</port>
			</input>
			<output>
				<port id="2" precision="FP32">
					<dim>1</dim>
					<dim>64</dim>
					<dim>52</dim>
					<dim>52</dim>
				</port>
			</output>
		</layer>
		<layer id="305" name="Reshape_75977017309" type="Const" version="opset1">
			<data offset="169648" size="128" shape="1,64,1,1" element_type="f16"/>
			<output>
				<port id="0" precision="FP16">
					<dim>1</dim>
					<dim>64</dim>
					<dim>1</dim>
					<dim>1</dim>
				</port>
			</output>
		</layer>
		<layer id="306" name="Reshape_7597708970/restored_convert" type="Convert" version="opset1">
			<data destination_type="f32"/>
			<rt_info>
				<attribute name="decompression" version="0"/>
			</rt_info>
			<input>
				<port id="0">
					<dim>1</dim>
					<dim>64</dim>
					<dim>1</dim>
					<dim>1</dim>
				</port>
			</input>
			<output>
				<port id="1" precision="FP32">
					<dim>1</dim>
					<dim>64</dim>
					<dim>1</dim>
					<dim>1</dim>
				</port>
			</output>
		</layer>
		<layer id="307" name="910" type="Add" version="opset1">
			<data auto_broadcast="numpy"/>
			<rt_info>
				<attribute name="fused_names" version="0" value="910, Concat_758, Reshape_759"/>
			</rt_info>
			<input>
				<port id="0">
					<dim>1</dim>
					<dim>64</dim>
					<dim>52</dim>
					<dim>52</dim>
				</port>
				<port id="1">
					<dim>1</dim>
					<dim>64</dim>
					<dim>1</dim>
					<dim>1</dim>
				</port>
			</input>
			<output>
				<port id="2" precision="FP32" names="910">
					<dim>1</dim>
					<dim>64</dim>
					<dim>52</dim>
					<dim>52</dim>
				</port>
			</output>
		</layer>
		<layer id="308" name="553" type="Swish" version="opset4">
			<rt_info>
				<attribute name="fused_names" version="0" value="552, 553"/>
			</rt_info>
			<input>
				<port id="0">
					<dim>1</dim>
					<dim>64</dim>
					<dim>52</dim>
					<dim>52</dim>
				</port>
			</input>
			<output>
				<port id="1" precision="FP32" names="553">
					<dim>1</dim>
					<dim>64</dim>
					<dim>52</dim>
					<dim>52</dim>
				</port>
			</output>
		</layer>
		<layer id="309" name="554/fq_input_0" type="FakeQuantize" version="opset1">
			<data levels="256" auto_broadcast="numpy"/>
			<input>
				<port id="0">
					<dim>1</dim>
					<dim>64</dim>
					<dim>52</dim>
					<dim>52</dim>
				</port>
				<port id="1"/>
				<port id="2"/>
				<port id="3"/>
				<port id="4"/>
			</input>
			<output>
				<port id="5" precision="FP32">
					<dim>1</dim>
					<dim>64</dim>
					<dim>52</dim>
					<dim>52</dim>
				</port>
			</output>
		</layer>
		<layer id="310" name="554" type="Add" version="opset1">
			<data auto_broadcast="numpy"/>
			<rt_info>
				<attribute name="fused_names" version="0" value="554"/>
			</rt_info>
			<input>
				<port id="0">
					<dim>1</dim>
					<dim>64</dim>
					<dim>52</dim>
					<dim>52</dim>
				</port>
				<port id="1">
					<dim>1</dim>
					<dim>64</dim>
					<dim>52</dim>
					<dim>52</dim>
				</port>
			</input>
			<output>
				<port id="2" precision="FP32" names="554">
					<dim>1</dim>
					<dim>64</dim>
					<dim>52</dim>
					<dim>52</dim>
				</port>
			</output>
		</layer>
		<layer id="311" name="563/fq_input_1" type="FakeQuantize" version="opset1">
			<data levels="256" auto_broadcast="numpy"/>
			<input>
				<port id="0">
					<dim>1</dim>
					<dim>64</dim>
					<dim>52</dim>
					<dim>52</dim>
				</port>
				<port id="1"/>
				<port id="2"/>
				<port id="3"/>
				<port id="4"/>
			</input>
			<output>
				<port id="5" precision="FP32">
					<dim>1</dim>
					<dim>64</dim>
					<dim>52</dim>
					<dim>52</dim>
				</port>
			</output>
		</layer>
		<layer id="312" name="9147758971/restored_convert/quantized1102717093" type="Const" version="opset1">
			<data offset="169776" size="4096" shape="64,64,1,1" element_type="i8"/>
			<output>
				<port id="0" precision="I8">
					<dim>64</dim>
					<dim>64</dim>
					<dim>1</dim>
					<dim>1</dim>
				</port>
			</output>
		</layer>
		<layer id="313" name="9147758971/restored_convert/quantized/to_f32" type="Convert" version="opset1">
			<data destination_type="f32"/>
			<input>
				<port id="0">
					<dim>64</dim>
					<dim>64</dim>
					<dim>1</dim>
					<dim>1</dim>
				</port>
			</input>
			<output>
				<port id="1" precision="FP32">
					<dim>64</dim>
					<dim>64</dim>
					<dim>1</dim>
					<dim>1</dim>
				</port>
			</output>
		</layer>
		<layer id="314" name="Convolution_790/fq_weights_1/zero_point1104617312" type="Const" version="opset1">
			<data offset="173872" size="256" shape="64,1,1,1" element_type="f32"/>
			<output>
				<port id="0" precision="FP32">
					<dim>64</dim>
					<dim>1</dim>
					<dim>1</dim>
					<dim>1</dim>
				</port>
			</output>
		</layer>
		<layer id="315" name="Convolution_790/fq_weights_1/minus_zp" type="Subtract" version="opset1">
			<data auto_broadcast="numpy"/>
			<input>
				<port id="0">
					<dim>64</dim>
					<dim>64</dim>
					<dim>1</dim>
					<dim>1</dim>
				</port>
				<port id="1">
					<dim>64</dim>
					<dim>1</dim>
					<dim>1</dim>
					<dim>1</dim>
				</port>
			</input>
			<output>
				<port id="2" precision="FP32">
					<dim>64</dim>
					<dim>64</dim>
					<dim>1</dim>
					<dim>1</dim>
				</port>
			</output>
		</layer>
		<layer id="316" name="Convolution_790/fq_weights_1/scale1103516043" type="Const" version="opset1">
			<data offset="174128" size="256" shape="64,1,1,1" element_type="f32"/>
			<output>
				<port id="0" precision="FP32">
					<dim>64</dim>
					<dim>1</dim>
					<dim>1</dim>
					<dim>1</dim>
				</port>
			</output>
		</layer>
		<layer id="317" name="Convolution_790/fq_weights_1/mulpiply_by_scale" type="Multiply" version="opset1">
			<data auto_broadcast="numpy"/>
			<input>
				<port id="0">
					<dim>64</dim>
					<dim>64</dim>
					<dim>1</dim>
					<dim>1</dim>
				</port>
				<port id="1">
					<dim>64</dim>
					<dim>1</dim>
					<dim>1</dim>
					<dim>1</dim>
				</port>
			</input>
			<output>
				<port id="2" precision="FP32">
					<dim>64</dim>
					<dim>64</dim>
					<dim>1</dim>
					<dim>1</dim>
				</port>
			</output>
		</layer>
		<layer id="318" name="Convolution_790" type="Convolution" version="opset1">
			<data auto_pad="explicit" strides="1,1" dilations="1,1" pads_begin="0,0" pads_end="0,0"/>
			<rt_info>
				<attribute name="fused_names" version="0" value="Convolution_790"/>
			</rt_info>
			<input>
				<port id="0">
					<dim>1</dim>
					<dim>64</dim>
					<dim>52</dim>
					<dim>52</dim>
				</port>
				<port id="1">
					<dim>64</dim>
					<dim>64</dim>
					<dim>1</dim>
					<dim>1</dim>
				</port>
			</input>
			<output>
				<port id="2" precision="FP32">
					<dim>1</dim>
					<dim>64</dim>
					<dim>52</dim>
					<dim>52</dim>
				</port>
			</output>
		</layer>
		<layer id="319" name="Reshape_81077817267" type="Const" version="opset1">
			<data offset="174384" size="128" shape="1,64,1,1" element_type="f16"/>
			<output>
				<port id="0" precision="FP16">
					<dim>1</dim>
					<dim>64</dim>
					<dim>1</dim>
					<dim>1</dim>
				</port>
			</output>
		</layer>
		<layer id="320" name="Reshape_8107788972/restored_convert" type="Convert" version="opset1">
			<data destination_type="f32"/>
			<rt_info>
				<attribute name="decompression" version="0"/>
			</rt_info>
			<input>
				<port id="0">
					<dim>1</dim>
					<dim>64</dim>
					<dim>1</dim>
					<dim>1</dim>
				</port>
			</input>
			<output>
				<port id="1" precision="FP32">
					<dim>1</dim>
					<dim>64</dim>
					<dim>1</dim>
					<dim>1</dim>
				</port>
			</output>
		</layer>
		<layer id="321" name="913" type="Add" version="opset1">
			<data auto_broadcast="numpy"/>
			<rt_info>
				<attribute name="fused_names" version="0" value="913, Concat_809, Reshape_810"/>
			</rt_info>
			<input>
				<port id="0">
					<dim>1</dim>
					<dim>64</dim>
					<dim>52</dim>
					<dim>52</dim>
				</port>
				<port id="1">
					<dim>1</dim>
					<dim>64</dim>
					<dim>1</dim>
					<dim>1</dim>
				</port>
			</input>
			<output>
				<port id="2" precision="FP32" names="913">
					<dim>1</dim>
					<dim>64</dim>
					<dim>52</dim>
					<dim>52</dim>
				</port>
			</output>
		</layer>
		<layer id="322" name="558" type="Swish" version="opset4">
			<rt_info>
				<attribute name="fused_names" version="0" value="557, 558"/>
			</rt_info>
			<input>
				<port id="0">
					<dim>1</dim>
					<dim>64</dim>
					<dim>52</dim>
					<dim>52</dim>
				</port>
			</input>
			<output>
				<port id="1" precision="FP32" names="558">
					<dim>1</dim>
					<dim>64</dim>
					<dim>52</dim>
					<dim>52</dim>
				</port>
			</output>
		</layer>
		<layer id="323" name="Convolution_840/fq_input_0" type="FakeQuantize" version="opset1">
			<data levels="256" auto_broadcast="numpy"/>
			<input>
				<port id="0">
					<dim>1</dim>
					<dim>64</dim>
					<dim>52</dim>
					<dim>52</dim>
				</port>
				<port id="1"/>
				<port id="2"/>
				<port id="3"/>
				<port id="4"/>
			</input>
			<output>
				<port id="5" precision="FP32">
					<dim>1</dim>
					<dim>64</dim>
					<dim>52</dim>
					<dim>52</dim>
				</port>
			</output>
		</layer>
		<layer id="324" name="9177828973/restored_convert/quantized1078716001" type="Const" version="opset1">
			<data offset="174512" size="36864" shape="64,64,3,3" element_type="i8"/>
			<output>
				<port id="0" precision="I8">
					<dim>64</dim>
					<dim>64</dim>
					<dim>3</dim>
					<dim>3</dim>
				</port>
			</output>
		</layer>
		<layer id="325" name="9177828973/restored_convert/quantized/to_f32" type="Convert" version="opset1">
			<data destination_type="f32"/>
			<input>
				<port id="0">
					<dim>64</dim>
					<dim>64</dim>
					<dim>3</dim>
					<dim>3</dim>
				</port>
			</input>
			<output>
				<port id="1" precision="FP32">
					<dim>64</dim>
					<dim>64</dim>
					<dim>3</dim>
					<dim>3</dim>
				</port>
			</output>
		</layer>
		<layer id="326" name="Convolution_840/fq_weights_1/zero_point1080616172" type="Const" version="opset1">
			<data offset="211376" size="256" shape="64,1,1,1" element_type="f32"/>
			<output>
				<port id="0" precision="FP32">
					<dim>64</dim>
					<dim>1</dim>
					<dim>1</dim>
					<dim>1</dim>
				</port>
			</output>
		</layer>
		<layer id="327" name="Convolution_840/fq_weights_1/minus_zp" type="Subtract" version="opset1">
			<data auto_broadcast="numpy"/>
			<input>
				<port id="0">
					<dim>64</dim>
					<dim>64</dim>
					<dim>3</dim>
					<dim>3</dim>
				</port>
				<port id="1">
					<dim>64</dim>
					<dim>1</dim>
					<dim>1</dim>
					<dim>1</dim>
				</port>
			</input>
			<output>
				<port id="2" precision="FP32">
					<dim>64</dim>
					<dim>64</dim>
					<dim>3</dim>
					<dim>3</dim>
				</port>
			</output>
		</layer>
		<layer id="328" name="Convolution_840/fq_weights_1/scale1079515587" type="Const" version="opset1">
			<data offset="211632" size="256" shape="64,1,1,1" element_type="f32"/>
			<output>
				<port id="0" precision="FP32">
					<dim>64</dim>
					<dim>1</dim>
					<dim>1</dim>
					<dim>1</dim>
				</port>
			</output>
		</layer>
		<layer id="329" name="Convolution_840/fq_weights_1/mulpiply_by_scale" type="Multiply" version="opset1">
			<data auto_broadcast="numpy"/>
			<input>
				<port id="0">
					<dim>64</dim>
					<dim>64</dim>
					<dim>3</dim>
					<dim>3</dim>
				</port>
				<port id="1">
					<dim>64</dim>
					<dim>1</dim>
					<dim>1</dim>
					<dim>1</dim>
				</port>
			</input>
			<output>
				<port id="2" precision="FP32">
					<dim>64</dim>
					<dim>64</dim>
					<dim>3</dim>
					<dim>3</dim>
				</port>
			</output>
		</layer>
		<layer id="330" name="Convolution_840" type="Convolution" version="opset1">
			<data auto_pad="explicit" strides="1,1" dilations="1,1" pads_begin="1,1" pads_end="1,1"/>
			<rt_info>
				<attribute name="fused_names" version="0" value="Convolution_840"/>
			</rt_info>
			<input>
				<port id="0">
					<dim>1</dim>
					<dim>64</dim>
					<dim>52</dim>
					<dim>52</dim>
				</port>
				<port id="1">
					<dim>64</dim>
					<dim>64</dim>
					<dim>3</dim>
					<dim>3</dim>
				</port>
			</input>
			<output>
				<port id="2" precision="FP32">
					<dim>1</dim>
					<dim>64</dim>
					<dim>52</dim>
					<dim>52</dim>
				</port>
			</output>
		</layer>
		<layer id="331" name="Reshape_86078515701" type="Const" version="opset1">
			<data offset="211888" size="128" shape="1,64,1,1" element_type="f16"/>
			<output>
				<port id="0" precision="FP16">
					<dim>1</dim>
					<dim>64</dim>
					<dim>1</dim>
					<dim>1</dim>
				</port>
			</output>
		</layer>
		<layer id="332" name="Reshape_8607858974/restored_convert" type="Convert" version="opset1">
			<data destination_type="f32"/>
			<rt_info>
				<attribute name="decompression" version="0"/>
			</rt_info>
			<input>
				<port id="0">
					<dim>1</dim>
					<dim>64</dim>
					<dim>1</dim>
					<dim>1</dim>
				</port>
			</input>
			<output>
				<port id="1" precision="FP32">
					<dim>1</dim>
					<dim>64</dim>
					<dim>1</dim>
					<dim>1</dim>
				</port>
			</output>
		</layer>
		<layer id="333" name="916" type="Add" version="opset1">
			<data auto_broadcast="numpy"/>
			<rt_info>
				<attribute name="fused_names" version="0" value="916, Concat_859, Reshape_860"/>
			</rt_info>
			<input>
				<port id="0">
					<dim>1</dim>
					<dim>64</dim>
					<dim>52</dim>
					<dim>52</dim>
				</port>
				<port id="1">
					<dim>1</dim>
					<dim>64</dim>
					<dim>1</dim>
					<dim>1</dim>
				</port>
			</input>
			<output>
				<port id="2" precision="FP32" names="916">
					<dim>1</dim>
					<dim>64</dim>
					<dim>52</dim>
					<dim>52</dim>
				</port>
			</output>
		</layer>
		<layer id="334" name="562" type="Swish" version="opset4">
			<rt_info>
				<attribute name="fused_names" version="0" value="561, 562"/>
			</rt_info>
			<input>
				<port id="0">
					<dim>1</dim>
					<dim>64</dim>
					<dim>52</dim>
					<dim>52</dim>
				</port>
			</input>
			<output>
				<port id="1" precision="FP32" names="562">
					<dim>1</dim>
					<dim>64</dim>
					<dim>52</dim>
					<dim>52</dim>
				</port>
			</output>
		</layer>
		<layer id="335" name="563/fq_input_0" type="FakeQuantize" version="opset1">
			<data levels="256" auto_broadcast="numpy"/>
			<input>
				<port id="0">
					<dim>1</dim>
					<dim>64</dim>
					<dim>52</dim>
					<dim>52</dim>
				</port>
				<port id="1"/>
				<port id="2"/>
				<port id="3"/>
				<port id="4"/>
			</input>
			<output>
				<port id="5" precision="FP32">
					<dim>1</dim>
					<dim>64</dim>
					<dim>52</dim>
					<dim>52</dim>
				</port>
			</output>
		</layer>
		<layer id="336" name="563" type="Add" version="opset1">
			<data auto_broadcast="numpy"/>
			<rt_info>
				<attribute name="fused_names" version="0" value="563"/>
			</rt_info>
			<input>
				<port id="0">
					<dim>1</dim>
					<dim>64</dim>
					<dim>52</dim>
					<dim>52</dim>
				</port>
				<port id="1">
					<dim>1</dim>
					<dim>64</dim>
					<dim>52</dim>
					<dim>52</dim>
				</port>
			</input>
			<output>
				<port id="2" precision="FP32" names="563">
					<dim>1</dim>
					<dim>64</dim>
					<dim>52</dim>
					<dim>52</dim>
				</port>
			</output>
		</layer>
		<layer id="337" name="572/fq_input_1" type="FakeQuantize" version="opset1">
			<data levels="256" auto_broadcast="numpy"/>
			<input>
				<port id="0">
					<dim>1</dim>
					<dim>64</dim>
					<dim>52</dim>
					<dim>52</dim>
				</port>
				<port id="1"/>
				<port id="2"/>
				<port id="3"/>
				<port id="4"/>
			</input>
			<output>
				<port id="5" precision="FP32">
					<dim>1</dim>
					<dim>64</dim>
					<dim>52</dim>
					<dim>52</dim>
				</port>
			</output>
		</layer>
		<layer id="338" name="9207908975/restored_convert/quantized1123715509" type="Const" version="opset1">
			<data offset="212016" size="4096" shape="64,64,1,1" element_type="i8"/>
			<output>
				<port id="0" precision="I8">
					<dim>64</dim>
					<dim>64</dim>
					<dim>1</dim>
					<dim>1</dim>
				</port>
			</output>
		</layer>
		<layer id="339" name="9207908975/restored_convert/quantized/to_f32" type="Convert" version="opset1">
			<data destination_type="f32"/>
			<input>
				<port id="0">
					<dim>64</dim>
					<dim>64</dim>
					<dim>1</dim>
					<dim>1</dim>
				</port>
			</input>
			<output>
				<port id="1" precision="FP32">
					<dim>64</dim>
					<dim>64</dim>
					<dim>1</dim>
					<dim>1</dim>
				</port>
			</output>
		</layer>
		<layer id="340" name="Convolution_891/fq_weights_1/zero_point1125616718" type="Const" version="opset1">
			<data offset="216112" size="256" shape="64,1,1,1" element_type="f32"/>
			<output>
				<port id="0" precision="FP32">
					<dim>64</dim>
					<dim>1</dim>
					<dim>1</dim>
					<dim>1</dim>
				</port>
			</output>
		</layer>
		<layer id="341" name="Convolution_891/fq_weights_1/minus_zp" type="Subtract" version="opset1">
			<data auto_broadcast="numpy"/>
			<input>
				<port id="0">
					<dim>64</dim>
					<dim>64</dim>
					<dim>1</dim>
					<dim>1</dim>
				</port>
				<port id="1">
					<dim>64</dim>
					<dim>1</dim>
					<dim>1</dim>
					<dim>1</dim>
				</port>
			</input>
			<output>
				<port id="2" precision="FP32">
					<dim>64</dim>
					<dim>64</dim>
					<dim>1</dim>
					<dim>1</dim>
				</port>
			</output>
		</layer>
		<layer id="342" name="Convolution_891/fq_weights_1/scale1124516079" type="Const" version="opset1">
			<data offset="216368" size="256" shape="64,1,1,1" element_type="f32"/>
			<output>
				<port id="0" precision="FP32">
					<dim>64</dim>
					<dim>1</dim>
					<dim>1</dim>
					<dim>1</dim>
				</port>
			</output>
		</layer>
		<layer id="343" name="Convolution_891/fq_weights_1/mulpiply_by_scale" type="Multiply" version="opset1">
			<data auto_broadcast="numpy"/>
			<input>
				<port id="0">
					<dim>64</dim>
					<dim>64</dim>
					<dim>1</dim>
					<dim>1</dim>
				</port>
				<port id="1">
					<dim>64</dim>
					<dim>1</dim>
					<dim>1</dim>
					<dim>1</dim>
				</port>
			</input>
			<output>
				<port id="2" precision="FP32">
					<dim>64</dim>
					<dim>64</dim>
					<dim>1</dim>
					<dim>1</dim>
				</port>
			</output>
		</layer>
		<layer id="344" name="Convolution_891" type="Convolution" version="opset1">
			<data auto_pad="explicit" strides="1,1" dilations="1,1" pads_begin="0,0" pads_end="0,0"/>
			<rt_info>
				<attribute name="fused_names" version="0" value="Convolution_891"/>
			</rt_info>
			<input>
				<port id="0">
					<dim>1</dim>
					<dim>64</dim>
					<dim>52</dim>
					<dim>52</dim>
				</port>
				<port id="1">
					<dim>64</dim>
					<dim>64</dim>
					<dim>1</dim>
					<dim>1</dim>
				</port>
			</input>
			<output>
				<port id="2" precision="FP32">
					<dim>1</dim>
					<dim>64</dim>
					<dim>52</dim>
					<dim>52</dim>
				</port>
			</output>
		</layer>
		<layer id="345" name="Reshape_91179316871" type="Const" version="opset1">
			<data offset="216624" size="128" shape="1,64,1,1" element_type="f16"/>
			<output>
				<port id="0" precision="FP16">
					<dim>1</dim>
					<dim>64</dim>
					<dim>1</dim>
					<dim>1</dim>
				</port>
			</output>
		</layer>
		<layer id="346" name="Reshape_9117938976/restored_convert" type="Convert" version="opset1">
			<data destination_type="f32"/>
			<rt_info>
				<attribute name="decompression" version="0"/>
			</rt_info>
			<input>
				<port id="0">
					<dim>1</dim>
					<dim>64</dim>
					<dim>1</dim>
					<dim>1</dim>
				</port>
			</input>
			<output>
				<port id="1" precision="FP32">
					<dim>1</dim>
					<dim>64</dim>
					<dim>1</dim>
					<dim>1</dim>
				</port>
			</output>
		</layer>
		<layer id="347" name="919" type="Add" version="opset1">
			<data auto_broadcast="numpy"/>
			<rt_info>
				<attribute name="fused_names" version="0" value="919, Concat_910, Reshape_911"/>
			</rt_info>
			<input>
				<port id="0">
					<dim>1</dim>
					<dim>64</dim>
					<dim>52</dim>
					<dim>52</dim>
				</port>
				<port id="1">
					<dim>1</dim>
					<dim>64</dim>
					<dim>1</dim>
					<dim>1</dim>
				</port>
			</input>
			<output>
				<port id="2" precision="FP32" names="919">
					<dim>1</dim>
					<dim>64</dim>
					<dim>52</dim>
					<dim>52</dim>
				</port>
			</output>
		</layer>
		<layer id="348" name="567" type="Swish" version="opset4">
			<rt_info>
				<attribute name="fused_names" version="0" value="566, 567"/>
			</rt_info>
			<input>
				<port id="0">
					<dim>1</dim>
					<dim>64</dim>
					<dim>52</dim>
					<dim>52</dim>
				</port>
			</input>
			<output>
				<port id="1" precision="FP32" names="567">
					<dim>1</dim>
					<dim>64</dim>
					<dim>52</dim>
					<dim>52</dim>
				</port>
			</output>
		</layer>
		<layer id="349" name="Convolution_941/fq_input_0" type="FakeQuantize" version="opset1">
			<data levels="256" auto_broadcast="numpy"/>
			<input>
				<port id="0">
					<dim>1</dim>
					<dim>64</dim>
					<dim>52</dim>
					<dim>52</dim>
				</port>
				<port id="1"/>
				<port id="2"/>
				<port id="3"/>
				<port id="4"/>
			</input>
			<output>
				<port id="5" precision="FP32">
					<dim>1</dim>
					<dim>64</dim>
					<dim>52</dim>
					<dim>52</dim>
				</port>
			</output>
		</layer>
		<layer id="350" name="9237978977/restored_convert/quantized1228717033" type="Const" version="opset1">
			<data offset="216752" size="36864" shape="64,64,3,3" element_type="i8"/>
			<output>
				<port id="0" precision="I8">
					<dim>64</dim>
					<dim>64</dim>
					<dim>3</dim>
					<dim>3</dim>
				</port>
			</output>
		</layer>
		<layer id="351" name="9237978977/restored_convert/quantized/to_f32" type="Convert" version="opset1">
			<data destination_type="f32"/>
			<input>
				<port id="0">
					<dim>64</dim>
					<dim>64</dim>
					<dim>3</dim>
					<dim>3</dim>
				</port>
			</input>
			<output>
				<port id="1" precision="FP32">
					<dim>64</dim>
					<dim>64</dim>
					<dim>3</dim>
					<dim>3</dim>
				</port>
			</output>
		</layer>
		<layer id="352" name="Convolution_941/fq_weights_1/zero_point1230616688" type="Const" version="opset1">
			<data offset="253616" size="256" shape="64,1,1,1" element_type="f32"/>
			<output>
				<port id="0" precision="FP32">
					<dim>64</dim>
					<dim>1</dim>
					<dim>1</dim>
					<dim>1</dim>
				</port>
			</output>
		</layer>
		<layer id="353" name="Convolution_941/fq_weights_1/minus_zp" type="Subtract" version="opset1">
			<data auto_broadcast="numpy"/>
			<input>
				<port id="0">
					<dim>64</dim>
					<dim>64</dim>
					<dim>3</dim>
					<dim>3</dim>
				</port>
				<port id="1">
					<dim>64</dim>
					<dim>1</dim>
					<dim>1</dim>
					<dim>1</dim>
				</port>
			</input>
			<output>
				<port id="2" precision="FP32">
					<dim>64</dim>
					<dim>64</dim>
					<dim>3</dim>
					<dim>3</dim>
				</port>
			</output>
		</layer>
		<layer id="354" name="Convolution_941/fq_weights_1/scale1229516268" type="Const" version="opset1">
			<data offset="253872" size="256" shape="64,1,1,1" element_type="f32"/>
			<output>
				<port id="0" precision="FP32">
					<dim>64</dim>
					<dim>1</dim>
					<dim>1</dim>
					<dim>1</dim>
				</port>
			</output>
		</layer>
		<layer id="355" name="Convolution_941/fq_weights_1/mulpiply_by_scale" type="Multiply" version="opset1">
			<data auto_broadcast="numpy"/>
			<input>
				<port id="0">
					<dim>64</dim>
					<dim>64</dim>
					<dim>3</dim>
					<dim>3</dim>
				</port>
				<port id="1">
					<dim>64</dim>
					<dim>1</dim>
					<dim>1</dim>
					<dim>1</dim>
				</port>
			</input>
			<output>
				<port id="2" precision="FP32">
					<dim>64</dim>
					<dim>64</dim>
					<dim>3</dim>
					<dim>3</dim>
				</port>
			</output>
		</layer>
		<layer id="356" name="Convolution_941" type="Convolution" version="opset1">
			<data auto_pad="explicit" strides="1,1" dilations="1,1" pads_begin="1,1" pads_end="1,1"/>
			<rt_info>
				<attribute name="fused_names" version="0" value="Convolution_941"/>
			</rt_info>
			<input>
				<port id="0">
					<dim>1</dim>
					<dim>64</dim>
					<dim>52</dim>
					<dim>52</dim>
				</port>
				<port id="1">
					<dim>64</dim>
					<dim>64</dim>
					<dim>3</dim>
					<dim>3</dim>
				</port>
			</input>
			<output>
				<port id="2" precision="FP32">
					<dim>1</dim>
					<dim>64</dim>
					<dim>52</dim>
					<dim>52</dim>
				</port>
			</output>
		</layer>
		<layer id="357" name="Reshape_96180015815" type="Const" version="opset1">
			<data offset="254128" size="128" shape="1,64,1,1" element_type="f16"/>
			<output>
				<port id="0" precision="FP16">
					<dim>1</dim>
					<dim>64</dim>
					<dim>1</dim>
					<dim>1</dim>
				</port>
			</output>
		</layer>
		<layer id="358" name="Reshape_9618008978/restored_convert" type="Convert" version="opset1">
			<data destination_type="f32"/>
			<rt_info>
				<attribute name="decompression" version="0"/>
			</rt_info>
			<input>
				<port id="0">
					<dim>1</dim>
					<dim>64</dim>
					<dim>1</dim>
					<dim>1</dim>
				</port>
			</input>
			<output>
				<port id="1" precision="FP32">
					<dim>1</dim>
					<dim>64</dim>
					<dim>1</dim>
					<dim>1</dim>
				</port>
			</output>
		</layer>
		<layer id="359" name="922" type="Add" version="opset1">
			<data auto_broadcast="numpy"/>
			<rt_info>
				<attribute name="fused_names" version="0" value="922, Concat_960, Reshape_961"/>
			</rt_info>
			<input>
				<port id="0">
					<dim>1</dim>
					<dim>64</dim>
					<dim>52</dim>
					<dim>52</dim>
				</port>
				<port id="1">
					<dim>1</dim>
					<dim>64</dim>
					<dim>1</dim>
					<dim>1</dim>
				</port>
			</input>
			<output>
				<port id="2" precision="FP32" names="922">
					<dim>1</dim>
					<dim>64</dim>
					<dim>52</dim>
					<dim>52</dim>
				</port>
			</output>
		</layer>
		<layer id="360" name="571" type="Swish" version="opset4">
			<rt_info>
				<attribute name="fused_names" version="0" value="570, 571"/>
			</rt_info>
			<input>
				<port id="0">
					<dim>1</dim>
					<dim>64</dim>
					<dim>52</dim>
					<dim>52</dim>
				</port>
			</input>
			<output>
				<port id="1" precision="FP32" names="571">
					<dim>1</dim>
					<dim>64</dim>
					<dim>52</dim>
					<dim>52</dim>
				</port>
			</output>
		</layer>
		<layer id="361" name="572/fq_input_0" type="FakeQuantize" version="opset1">
			<data levels="256" auto_broadcast="numpy"/>
			<input>
				<port id="0">
					<dim>1</dim>
					<dim>64</dim>
					<dim>52</dim>
					<dim>52</dim>
				</port>
				<port id="1"/>
				<port id="2"/>
				<port id="3"/>
				<port id="4"/>
			</input>
			<output>
				<port id="5" precision="FP32">
					<dim>1</dim>
					<dim>64</dim>
					<dim>52</dim>
					<dim>52</dim>
				</port>
			</output>
		</layer>
		<layer id="362" name="572" type="Add" version="opset1">
			<data auto_broadcast="numpy"/>
			<rt_info>
				<attribute name="fused_names" version="0" value="572"/>
			</rt_info>
			<input>
				<port id="0">
					<dim>1</dim>
					<dim>64</dim>
					<dim>52</dim>
					<dim>52</dim>
				</port>
				<port id="1">
					<dim>1</dim>
					<dim>64</dim>
					<dim>52</dim>
					<dim>52</dim>
				</port>
			</input>
			<output>
				<port id="2" precision="FP32" names="572">
					<dim>1</dim>
					<dim>64</dim>
					<dim>52</dim>
					<dim>52</dim>
				</port>
			</output>
		</layer>
		<layer id="363" name="573/fq_input_0" type="FakeQuantize" version="opset1">
			<data levels="256" auto_broadcast="numpy"/>
			<input>
				<port id="0">
					<dim>1</dim>
					<dim>64</dim>
					<dim>52</dim>
					<dim>52</dim>
				</port>
				<port id="1"/>
				<port id="2"/>
				<port id="3"/>
				<port id="4"/>
			</input>
			<output>
				<port id="5" precision="FP32">
					<dim>1</dim>
					<dim>64</dim>
					<dim>52</dim>
					<dim>52</dim>
				</port>
			</output>
		</layer>
		<layer id="364" name="5348535216073" type="Const" version="opset1">
			<data offset="120" size="4" shape="" element_type="f32"/>
			<output>
				<port id="0" precision="FP32"/>
			</output>
		</layer>
		<layer id="365" name="5349535317153" type="Const" version="opset1">
			<data offset="124" size="4" shape="" element_type="f32"/>
			<output>
				<port id="0" precision="FP32"/>
			</output>
		</layer>
		<layer id="366" name="5350535416076" type="Const" version="opset1">
			<data offset="120" size="4" shape="" element_type="f32"/>
			<output>
				<port id="0" precision="FP32"/>
			</output>
		</layer>
		<layer id="367" name="5351535515881" type="Const" version="opset1">
			<data offset="124" size="4" shape="" element_type="f32"/>
			<output>
				<port id="0" precision="FP32"/>
			</output>
		</layer>
		<layer id="368" name="9058058979/restored_convert/quantized1042716559" type="Const" version="opset1">
			<data offset="254256" size="8192" shape="64,128,1,1" element_type="i8"/>
			<output>
				<port id="0" precision="I8">
					<dim>64</dim>
					<dim>128</dim>
					<dim>1</dim>
					<dim>1</dim>
				</port>
			</output>
		</layer>
		<layer id="369" name="9058058979/restored_convert/quantized/to_f32" type="Convert" version="opset1">
			<data destination_type="f32"/>
			<input>
				<port id="0">
					<dim>64</dim>
					<dim>128</dim>
					<dim>1</dim>
					<dim>1</dim>
				</port>
			</input>
			<output>
				<port id="1" precision="FP32">
					<dim>64</dim>
					<dim>128</dim>
					<dim>1</dim>
					<dim>1</dim>
				</port>
			</output>
		</layer>
		<layer id="370" name="Convolution_639/fq_weights_1/zero_point1044616280" type="Const" version="opset1">
			<data offset="262448" size="256" shape="64,1,1,1" element_type="f32"/>
			<output>
				<port id="0" precision="FP32">
					<dim>64</dim>
					<dim>1</dim>
					<dim>1</dim>
					<dim>1</dim>
				</port>
			</output>
		</layer>
		<layer id="371" name="Convolution_639/fq_weights_1/minus_zp" type="Subtract" version="opset1">
			<data auto_broadcast="numpy"/>
			<input>
				<port id="0">
					<dim>64</dim>
					<dim>128</dim>
					<dim>1</dim>
					<dim>1</dim>
				</port>
				<port id="1">
					<dim>64</dim>
					<dim>1</dim>
					<dim>1</dim>
					<dim>1</dim>
				</port>
			</input>
			<output>
				<port id="2" precision="FP32">
					<dim>64</dim>
					<dim>128</dim>
					<dim>1</dim>
					<dim>1</dim>
				</port>
			</output>
		</layer>
		<layer id="372" name="Convolution_639/fq_weights_1/scale1043516166" type="Const" version="opset1">
			<data offset="262704" size="256" shape="64,1,1,1" element_type="f32"/>
			<output>
				<port id="0" precision="FP32">
					<dim>64</dim>
					<dim>1</dim>
					<dim>1</dim>
					<dim>1</dim>
				</port>
			</output>
		</layer>
		<layer id="373" name="Convolution_639/fq_weights_1/mulpiply_by_scale" type="Multiply" version="opset1">
			<data auto_broadcast="numpy"/>
			<input>
				<port id="0">
					<dim>64</dim>
					<dim>128</dim>
					<dim>1</dim>
					<dim>1</dim>
				</port>
				<port id="1">
					<dim>64</dim>
					<dim>1</dim>
					<dim>1</dim>
					<dim>1</dim>
				</port>
			</input>
			<output>
				<port id="2" precision="FP32">
					<dim>64</dim>
					<dim>128</dim>
					<dim>1</dim>
					<dim>1</dim>
				</port>
			</output>
		</layer>
		<layer id="374" name="Convolution_639" type="Convolution" version="opset1">
			<data auto_pad="explicit" strides="1,1" dilations="1,1" pads_begin="0,0" pads_end="0,0"/>
			<rt_info>
				<attribute name="fused_names" version="0" value="Convolution_639"/>
			</rt_info>
			<input>
				<port id="0">
					<dim>1</dim>
					<dim>128</dim>
					<dim>52</dim>
					<dim>52</dim>
				</port>
				<port id="1">
					<dim>64</dim>
					<dim>128</dim>
					<dim>1</dim>
					<dim>1</dim>
				</port>
			</input>
			<output>
				<port id="2" precision="FP32">
					<dim>1</dim>
					<dim>64</dim>
					<dim>52</dim>
					<dim>52</dim>
				</port>
			</output>
		</layer>
		<layer id="375" name="Reshape_65980816667" type="Const" version="opset1">
			<data offset="262960" size="128" shape="1,64,1,1" element_type="f16"/>
			<output>
				<port id="0" precision="FP16">
					<dim>1</dim>
					<dim>64</dim>
					<dim>1</dim>
					<dim>1</dim>
				</port>
			</output>
		</layer>
		<layer id="376" name="Reshape_6598088980/restored_convert" type="Convert" version="opset1">
			<data destination_type="f32"/>
			<rt_info>
				<attribute name="decompression" version="0"/>
			</rt_info>
			<input>
				<port id="0">
					<dim>1</dim>
					<dim>64</dim>
					<dim>1</dim>
					<dim>1</dim>
				</port>
			</input>
			<output>
				<port id="1" precision="FP32">
					<dim>1</dim>
					<dim>64</dim>
					<dim>1</dim>
					<dim>1</dim>
				</port>
			</output>
		</layer>
		<layer id="377" name="904" type="Add" version="opset1">
			<data auto_broadcast="numpy"/>
			<rt_info>
				<attribute name="fused_names" version="0" value="904, Concat_658, Reshape_659"/>
			</rt_info>
			<input>
				<port id="0">
					<dim>1</dim>
					<dim>64</dim>
					<dim>52</dim>
					<dim>52</dim>
				</port>
				<port id="1">
					<dim>1</dim>
					<dim>64</dim>
					<dim>1</dim>
					<dim>1</dim>
				</port>
			</input>
			<output>
				<port id="2" precision="FP32" names="904">
					<dim>1</dim>
					<dim>64</dim>
					<dim>52</dim>
					<dim>52</dim>
				</port>
			</output>
		</layer>
		<layer id="378" name="545" type="Swish" version="opset4">
			<rt_info>
				<attribute name="fused_names" version="0" value="544, 545"/>
			</rt_info>
			<input>
				<port id="0">
					<dim>1</dim>
					<dim>64</dim>
					<dim>52</dim>
					<dim>52</dim>
				</port>
			</input>
			<output>
				<port id="1" precision="FP32" names="545">
					<dim>1</dim>
					<dim>64</dim>
					<dim>52</dim>
					<dim>52</dim>
				</port>
			</output>
		</layer>
		<layer id="379" name="573/fq_input_1" type="FakeQuantize" version="opset1">
			<data levels="256" auto_broadcast="numpy"/>
			<input>
				<port id="0">
					<dim>1</dim>
					<dim>64</dim>
					<dim>52</dim>
					<dim>52</dim>
				</port>
				<port id="1"/>
				<port id="2"/>
				<port id="3"/>
				<port id="4"/>
			</input>
			<output>
				<port id="5" precision="FP32">
					<dim>1</dim>
					<dim>64</dim>
					<dim>52</dim>
					<dim>52</dim>
				</port>
			</output>
		</layer>
		<layer id="380" name="573" type="Concat" version="opset1">
			<data axis="1"/>
			<rt_info>
				<attribute name="fused_names" version="0" value="573"/>
			</rt_info>
			<input>
				<port id="0">
					<dim>1</dim>
					<dim>64</dim>
					<dim>52</dim>
					<dim>52</dim>
				</port>
				<port id="1">
					<dim>1</dim>
					<dim>64</dim>
					<dim>52</dim>
					<dim>52</dim>
				</port>
			</input>
			<output>
				<port id="2" precision="FP32" names="573">
					<dim>1</dim>
					<dim>128</dim>
					<dim>52</dim>
					<dim>52</dim>
				</port>
			</output>
		</layer>
		<layer id="381" name="9268138981/restored_convert/quantized1252716979" type="Const" version="opset1">
			<data offset="263088" size="16384" shape="128,128,1,1" element_type="i8"/>
			<output>
				<port id="0" precision="I8">
					<dim>128</dim>
					<dim>128</dim>
					<dim>1</dim>
					<dim>1</dim>
				</port>
			</output>
		</layer>
		<layer id="382" name="9268138981/restored_convert/quantized/to_f32" type="Convert" version="opset1">
			<data destination_type="f32"/>
			<input>
				<port id="0">
					<dim>128</dim>
					<dim>128</dim>
					<dim>1</dim>
					<dim>1</dim>
				</port>
			</input>
			<output>
				<port id="1" precision="FP32">
					<dim>128</dim>
					<dim>128</dim>
					<dim>1</dim>
					<dim>1</dim>
				</port>
			</output>
		</layer>
		<layer id="383" name="Convolution_993/fq_weights_1/zero_point1254616868" type="Const" version="opset1">
			<data offset="279472" size="512" shape="128,1,1,1" element_type="f32"/>
			<output>
				<port id="0" precision="FP32">
					<dim>128</dim>
					<dim>1</dim>
					<dim>1</dim>
					<dim>1</dim>
				</port>
			</output>
		</layer>
		<layer id="384" name="Convolution_993/fq_weights_1/minus_zp" type="Subtract" version="opset1">
			<data auto_broadcast="numpy"/>
			<input>
				<port id="0">
					<dim>128</dim>
					<dim>128</dim>
					<dim>1</dim>
					<dim>1</dim>
				</port>
				<port id="1">
					<dim>128</dim>
					<dim>1</dim>
					<dim>1</dim>
					<dim>1</dim>
				</port>
			</input>
			<output>
				<port id="2" precision="FP32">
					<dim>128</dim>
					<dim>128</dim>
					<dim>1</dim>
					<dim>1</dim>
				</port>
			</output>
		</layer>
		<layer id="385" name="Convolution_993/fq_weights_1/scale1253516514" type="Const" version="opset1">
			<data offset="279984" size="512" shape="128,1,1,1" element_type="f32"/>
			<output>
				<port id="0" precision="FP32">
					<dim>128</dim>
					<dim>1</dim>
					<dim>1</dim>
					<dim>1</dim>
				</port>
			</output>
		</layer>
		<layer id="386" name="Convolution_993/fq_weights_1/mulpiply_by_scale" type="Multiply" version="opset1">
			<data auto_broadcast="numpy"/>
			<input>
				<port id="0">
					<dim>128</dim>
					<dim>128</dim>
					<dim>1</dim>
					<dim>1</dim>
				</port>
				<port id="1">
					<dim>128</dim>
					<dim>1</dim>
					<dim>1</dim>
					<dim>1</dim>
				</port>
			</input>
			<output>
				<port id="2" precision="FP32">
					<dim>128</dim>
					<dim>128</dim>
					<dim>1</dim>
					<dim>1</dim>
				</port>
			</output>
		</layer>
		<layer id="387" name="Convolution_993" type="Convolution" version="opset1">
			<data auto_pad="explicit" strides="1,1" dilations="1,1" pads_begin="0,0" pads_end="0,0"/>
			<rt_info>
				<attribute name="fused_names" version="0" value="Convolution_993"/>
			</rt_info>
			<input>
				<port id="0">
					<dim>1</dim>
					<dim>128</dim>
					<dim>52</dim>
					<dim>52</dim>
				</port>
				<port id="1">
					<dim>128</dim>
					<dim>128</dim>
					<dim>1</dim>
					<dim>1</dim>
				</port>
			</input>
			<output>
				<port id="2" precision="FP32">
					<dim>1</dim>
					<dim>128</dim>
					<dim>52</dim>
					<dim>52</dim>
				</port>
			</output>
		</layer>
		<layer id="388" name="Reshape_101381615812" type="Const" version="opset1">
			<data offset="280496" size="256" shape="1,128,1,1" element_type="f16"/>
			<output>
				<port id="0" precision="FP16">
					<dim>1</dim>
					<dim>128</dim>
					<dim>1</dim>
					<dim>1</dim>
				</port>
			</output>
		</layer>
		<layer id="389" name="Reshape_10138168982/restored_convert" type="Convert" version="opset1">
			<data destination_type="f32"/>
			<rt_info>
				<attribute name="decompression" version="0"/>
			</rt_info>
			<input>
				<port id="0">
					<dim>1</dim>
					<dim>128</dim>
					<dim>1</dim>
					<dim>1</dim>
				</port>
			</input>
			<output>
				<port id="1" precision="FP32">
					<dim>1</dim>
					<dim>128</dim>
					<dim>1</dim>
					<dim>1</dim>
				</port>
			</output>
		</layer>
		<layer id="390" name="925" type="Add" version="opset1">
			<data auto_broadcast="numpy"/>
			<rt_info>
				<attribute name="fused_names" version="0" value="925, Concat_1012, Reshape_1013"/>
			</rt_info>
			<input>
				<port id="0">
					<dim>1</dim>
					<dim>128</dim>
					<dim>52</dim>
					<dim>52</dim>
				</port>
				<port id="1">
					<dim>1</dim>
					<dim>128</dim>
					<dim>1</dim>
					<dim>1</dim>
				</port>
			</input>
			<output>
				<port id="2" precision="FP32" names="925">
					<dim>1</dim>
					<dim>128</dim>
					<dim>52</dim>
					<dim>52</dim>
				</port>
			</output>
		</layer>
		<layer id="391" name="577" type="Swish" version="opset4">
			<rt_info>
				<attribute name="fused_names" version="0" value="576, 577"/>
			</rt_info>
			<input>
				<port id="0">
					<dim>1</dim>
					<dim>128</dim>
					<dim>52</dim>
					<dim>52</dim>
				</port>
			</input>
			<output>
				<port id="1" precision="FP32" names="577">
					<dim>1</dim>
					<dim>128</dim>
					<dim>52</dim>
					<dim>52</dim>
				</port>
			</output>
		</layer>
		<layer id="392" name="699/fq_input_1" type="FakeQuantize" version="opset1">
			<data levels="256" auto_broadcast="numpy"/>
			<input>
				<port id="0">
					<dim>1</dim>
					<dim>128</dim>
					<dim>52</dim>
					<dim>52</dim>
				</port>
				<port id="1"/>
				<port id="2"/>
				<port id="3"/>
				<port id="4"/>
			</input>
			<output>
				<port id="5" precision="FP32">
					<dim>1</dim>
					<dim>128</dim>
					<dim>52</dim>
					<dim>52</dim>
				</port>
			</output>
		</layer>
		<layer id="393" name="9298208983/restored_convert/quantized1111716115" type="Const" version="opset1">
			<data offset="280752" size="294912" shape="256,128,3,3" element_type="i8"/>
			<output>
				<port id="0" precision="I8">
					<dim>256</dim>
					<dim>128</dim>
					<dim>3</dim>
					<dim>3</dim>
				</port>
			</output>
		</layer>
		<layer id="394" name="9298208983/restored_convert/quantized/to_f32" type="Convert" version="opset1">
			<data destination_type="f32"/>
			<input>
				<port id="0">
					<dim>256</dim>
					<dim>128</dim>
					<dim>3</dim>
					<dim>3</dim>
				</port>
			</input>
			<output>
				<port id="1" precision="FP32">
					<dim>256</dim>
					<dim>128</dim>
					<dim>3</dim>
					<dim>3</dim>
				</port>
			</output>
		</layer>
		<layer id="395" name="Convolution_1043/fq_weights_1/zero_point1113615905" type="Const" version="opset1">
			<data offset="575664" size="1024" shape="256,1,1,1" element_type="f32"/>
			<output>
				<port id="0" precision="FP32">
					<dim>256</dim>
					<dim>1</dim>
					<dim>1</dim>
					<dim>1</dim>
				</port>
			</output>
		</layer>
		<layer id="396" name="Convolution_1043/fq_weights_1/minus_zp" type="Subtract" version="opset1">
			<data auto_broadcast="numpy"/>
			<input>
				<port id="0">
					<dim>256</dim>
					<dim>128</dim>
					<dim>3</dim>
					<dim>3</dim>
				</port>
				<port id="1">
					<dim>256</dim>
					<dim>1</dim>
					<dim>1</dim>
					<dim>1</dim>
				</port>
			</input>
			<output>
				<port id="2" precision="FP32">
					<dim>256</dim>
					<dim>128</dim>
					<dim>3</dim>
					<dim>3</dim>
				</port>
			</output>
		</layer>
		<layer id="397" name="Convolution_1043/fq_weights_1/scale1112515911" type="Const" version="opset1">
			<data offset="576688" size="1024" shape="256,1,1,1" element_type="f32"/>
			<output>
				<port id="0" precision="FP32">
					<dim>256</dim>
					<dim>1</dim>
					<dim>1</dim>
					<dim>1</dim>
				</port>
			</output>
		</layer>
		<layer id="398" name="Convolution_1043/fq_weights_1/mulpiply_by_scale" type="Multiply" version="opset1">
			<data auto_broadcast="numpy"/>
			<input>
				<port id="0">
					<dim>256</dim>
					<dim>128</dim>
					<dim>3</dim>
					<dim>3</dim>
				</port>
				<port id="1">
					<dim>256</dim>
					<dim>1</dim>
					<dim>1</dim>
					<dim>1</dim>
				</port>
			</input>
			<output>
				<port id="2" precision="FP32">
					<dim>256</dim>
					<dim>128</dim>
					<dim>3</dim>
					<dim>3</dim>
				</port>
			</output>
		</layer>
		<layer id="399" name="Convolution_1043" type="Convolution" version="opset1">
			<data auto_pad="explicit" strides="2,2" dilations="1,1" pads_begin="1,1" pads_end="1,1"/>
			<rt_info>
				<attribute name="fused_names" version="0" value="Convolution_1043"/>
			</rt_info>
			<input>
				<port id="0">
					<dim>1</dim>
					<dim>128</dim>
					<dim>52</dim>
					<dim>52</dim>
				</port>
				<port id="1">
					<dim>256</dim>
					<dim>128</dim>
					<dim>3</dim>
					<dim>3</dim>
				</port>
			</input>
			<output>
				<port id="2" precision="FP32">
					<dim>1</dim>
					<dim>256</dim>
					<dim>26</dim>
					<dim>26</dim>
				</port>
			</output>
		</layer>
		<layer id="400" name="Reshape_106382317420" type="Const" version="opset1">
			<data offset="577712" size="512" shape="1,256,1,1" element_type="f16"/>
			<output>
				<port id="0" precision="FP16">
					<dim>1</dim>
					<dim>256</dim>
					<dim>1</dim>
					<dim>1</dim>
				</port>
			</output>
		</layer>
		<layer id="401" name="Reshape_10638238984/restored_convert" type="Convert" version="opset1">
			<data destination_type="f32"/>
			<rt_info>
				<attribute name="decompression" version="0"/>
			</rt_info>
			<input>
				<port id="0">
					<dim>1</dim>
					<dim>256</dim>
					<dim>1</dim>
					<dim>1</dim>
				</port>
			</input>
			<output>
				<port id="1" precision="FP32">
					<dim>1</dim>
					<dim>256</dim>
					<dim>1</dim>
					<dim>1</dim>
				</port>
			</output>
		</layer>
		<layer id="402" name="928" type="Add" version="opset1">
			<data auto_broadcast="numpy"/>
			<rt_info>
				<attribute name="fused_names" version="0" value="928, Concat_1062, Reshape_1063"/>
			</rt_info>
			<input>
				<port id="0">
					<dim>1</dim>
					<dim>256</dim>
					<dim>26</dim>
					<dim>26</dim>
				</port>
				<port id="1">
					<dim>1</dim>
					<dim>256</dim>
					<dim>1</dim>
					<dim>1</dim>
				</port>
			</input>
			<output>
				<port id="2" precision="FP32" names="928">
					<dim>1</dim>
					<dim>256</dim>
					<dim>26</dim>
					<dim>26</dim>
				</port>
			</output>
		</layer>
		<layer id="403" name="581" type="Swish" version="opset4">
			<rt_info>
				<attribute name="fused_names" version="0" value="580, 581"/>
			</rt_info>
			<input>
				<port id="0">
					<dim>1</dim>
					<dim>256</dim>
					<dim>26</dim>
					<dim>26</dim>
				</port>
			</input>
			<output>
				<port id="1" precision="FP32" names="581">
					<dim>1</dim>
					<dim>256</dim>
					<dim>26</dim>
					<dim>26</dim>
				</port>
			</output>
		</layer>
		<layer id="404" name="Convolution_1093/fq_input_0" type="FakeQuantize" version="opset1">
			<data levels="256" auto_broadcast="numpy"/>
			<input>
				<port id="0">
					<dim>1</dim>
					<dim>256</dim>
					<dim>26</dim>
					<dim>26</dim>
				</port>
				<port id="1"/>
				<port id="2"/>
				<port id="3"/>
				<port id="4"/>
			</input>
			<output>
				<port id="5" precision="FP32">
					<dim>1</dim>
					<dim>256</dim>
					<dim>26</dim>
					<dim>26</dim>
				</port>
			</output>
		</layer>
		<layer id="405" name="9328278985/restored_convert/quantized1216716184" type="Const" version="opset1">
			<data offset="578224" size="32768" shape="128,256,1,1" element_type="i8"/>
			<output>
				<port id="0" precision="I8">
					<dim>128</dim>
					<dim>256</dim>
					<dim>1</dim>
					<dim>1</dim>
				</port>
			</output>
		</layer>
		<layer id="406" name="9328278985/restored_convert/quantized/to_f32" type="Convert" version="opset1">
			<data destination_type="f32"/>
			<input>
				<port id="0">
					<dim>128</dim>
					<dim>256</dim>
					<dim>1</dim>
					<dim>1</dim>
				</port>
			</input>
			<output>
				<port id="1" precision="FP32">
					<dim>128</dim>
					<dim>256</dim>
					<dim>1</dim>
					<dim>1</dim>
				</port>
			</output>
		</layer>
		<layer id="407" name="Convolution_1093/fq_weights_1/zero_point1218615962" type="Const" version="opset1">
			<data offset="610992" size="512" shape="128,1,1,1" element_type="f32"/>
			<output>
				<port id="0" precision="FP32">
					<dim>128</dim>
					<dim>1</dim>
					<dim>1</dim>
					<dim>1</dim>
				</port>
			</output>
		</layer>
		<layer id="408" name="Convolution_1093/fq_weights_1/minus_zp" type="Subtract" version="opset1">
			<data auto_broadcast="numpy"/>
			<input>
				<port id="0">
					<dim>128</dim>
					<dim>256</dim>
					<dim>1</dim>
					<dim>1</dim>
				</port>
				<port id="1">
					<dim>128</dim>
					<dim>1</dim>
					<dim>1</dim>
					<dim>1</dim>
				</port>
			</input>
			<output>
				<port id="2" precision="FP32">
…
		<edge from-layer="793" from-port="1" to-layer="794" to-port="1"/>
		<edge from-layer="794" from-port="2" to-layer="795" to-port="0"/>
		<edge from-layer="795" from-port="1" to-layer="796" to-port="0"/>
		<edge from-layer="591" from-port="0" to-layer="796" to-port="1"/>
		<edge from-layer="592" from-port="0" to-layer="796" to-port="2"/>
		<edge from-layer="593" from-port="0" to-layer="796" to-port="3"/>
		<edge from-layer="594" from-port="0" to-layer="796" to-port="4"/>
		<edge from-layer="797" from-port="0" to-layer="798" to-port="0"/>
		<edge from-layer="798" from-port="1" to-layer="800" to-port="0"/>
		<edge from-layer="799" from-port="0" to-layer="800" to-port="1"/>
		<edge from-layer="800" from-port="2" to-layer="802" to-port="0"/>
		<edge from-layer="801" from-port="0" to-layer="802" to-port="1"/>
		<edge from-layer="796" from-port="5" to-layer="803" to-port="0"/>
		<edge from-layer="802" from-port="2" to-layer="803" to-port="1"/>
		<edge from-layer="804" from-port="0" to-layer="805" to-port="0"/>
		<edge from-layer="803" from-port="2" to-layer="806" to-port="0"/>
		<edge from-layer="805" from-port="1" to-layer="806" to-port="1"/>
		<edge from-layer="806" from-port="2" to-layer="807" to-port="0"/>
		<edge from-layer="807" from-port="1" to-layer="808" to-port="0"/>
		<edge from-layer="587" from-port="0" to-layer="808" to-port="1"/>
		<edge from-layer="588" from-port="0" to-layer="808" to-port="2"/>
		<edge from-layer="589" from-port="0" to-layer="808" to-port="3"/>
		<edge from-layer="590" from-port="0" to-layer="808" to-port="4"/>
		<edge from-layer="807" from-port="1" to-layer="809" to-port="0"/>
		<edge from-layer="809" from-port="1" to-layer="810" to-port="0"/>
		<edge from-layer="810" from-port="1" to-layer="811" to-port="0"/>
		<edge from-layer="586" from-port="0" to-layer="811" to-port="1"/>
		<edge from-layer="811" from-port="2" to-layer="812" to-port="0"/>
		<edge from-layer="808" from-port="5" to-layer="813" to-port="0"/>
		<edge from-layer="812" from-port="1" to-layer="813" to-port="1"/>
		<edge from-layer="586" from-port="0" to-layer="813" to-port="2"/>
		<edge from-layer="813" from-port="3" to-layer="814" to-port="0"/>
		<edge from-layer="582" from-port="0" to-layer="814" to-port="1"/>
		<edge from-layer="583" from-port="0" to-layer="814" to-port="2"/>
		<edge from-layer="584" from-port="0" to-layer="814" to-port="3"/>
		<edge from-layer="585" from-port="0" to-layer="814" to-port="4"/>
		<edge from-layer="814" from-port="5" to-layer="815" to-port="0"/>
		<edge from-layer="392" from-port="5" to-layer="815" to-port="1"/>
		<edge from-layer="816" from-port="0" to-layer="817" to-port="0"/>
		<edge from-layer="817" from-port="1" to-layer="819" to-port="0"/>
		<edge from-layer="818" from-port="0" to-layer="819" to-port="1"/>
		<edge from-layer="819" from-port="2" to-layer="821" to-port="0"/>
		<edge from-layer="820" from-port="0" to-layer="821" to-port="1"/>
		<edge from-layer="815" from-port="2" to-layer="822" to-port="0"/>
		<edge from-layer="821" from-port="2" to-layer="822" to-port="1"/>
		<edge from-layer="823" from-port="0" to-layer="824" to-port="0"/>
		<edge from-layer="822" from-port="2" to-layer="825" to-port="0"/>
		<edge from-layer="824" from-port="1" to-layer="825" to-port="1"/>
		<edge from-layer="825" from-port="2" to-layer="826" to-port="0"/>
		<edge from-layer="826" from-port="1" to-layer="827" to-port="0"/>
		<edge from-layer="578" from-port="0" to-layer="827" to-port="1"/>
		<edge from-layer="579" from-port="0" to-layer="827" to-port="2"/>
		<edge from-layer="580" from-port="0" to-layer="827" to-port="3"/>
		<edge from-layer="581" from-port="0" to-layer="827" to-port="4"/>
		<edge from-layer="828" from-port="0" to-layer="829" to-port="0"/>
		<edge from-layer="829" from-port="1" to-layer="831" to-port="0"/>
		<edge from-layer="830" from-port="0" to-layer="831" to-port="1"/>
		<edge from-layer="831" from-port="2" to-layer="833" to-port="0"/>
		<edge from-layer="832" from-port="0" to-layer="833" to-port="1"/>
		<edge from-layer="827" from-port="5" to-layer="834" to-port="0"/>
		<edge from-layer="833" from-port="2" to-layer="834" to-port="1"/>
		<edge from-layer="835" from-port="0" to-layer="836" to-port="0"/>
		<edge from-layer="834" from-port="2" to-layer="837" to-port="0"/>
		<edge from-layer="836" from-port="1" to-layer="837" to-port="1"/>
		<edge from-layer="837" from-port="2" to-layer="838" to-port="0"/>
		<edge from-layer="838" from-port="1" to-layer="839" to-port="0"/>
		<edge from-layer="574" from-port="0" to-layer="839" to-port="1"/>
		<edge from-layer="575" from-port="0" to-layer="839" to-port="2"/>
		<edge from-layer="576" from-port="0" to-layer="839" to-port="3"/>
		<edge from-layer="577" from-port="0" to-layer="839" to-port="4"/>
		<edge from-layer="840" from-port="0" to-layer="841" to-port="0"/>
		<edge from-layer="841" from-port="1" to-layer="843" to-port="0"/>
		<edge from-layer="842" from-port="0" to-layer="843" to-port="1"/>
		<edge from-layer="843" from-port="2" to-layer="845" to-port="0"/>
		<edge from-layer="844" from-port="0" to-layer="845" to-port="1"/>
		<edge from-layer="839" from-port="5" to-layer="846" to-port="0"/>
		<edge from-layer="845" from-port="2" to-layer="846" to-port="1"/>
		<edge from-layer="847" from-port="0" to-layer="848" to-port="0"/>
		<edge from-layer="846" from-port="2" to-layer="849" to-port="0"/>
		<edge from-layer="848" from-port="1" to-layer="849" to-port="1"/>
		<edge from-layer="849" from-port="2" to-layer="850" to-port="0"/>
		<edge from-layer="850" from-port="1" to-layer="851" to-port="0"/>
		<edge from-layer="570" from-port="0" to-layer="851" to-port="1"/>
		<edge from-layer="571" from-port="0" to-layer="851" to-port="2"/>
		<edge from-layer="572" from-port="0" to-layer="851" to-port="3"/>
		<edge from-layer="573" from-port="0" to-layer="851" to-port="4"/>
		<edge from-layer="856" from-port="0" to-layer="857" to-port="0"/>
		<edge from-layer="857" from-port="1" to-layer="859" to-port="0"/>
		<edge from-layer="858" from-port="0" to-layer="859" to-port="1"/>
		<edge from-layer="859" from-port="2" to-layer="861" to-port="0"/>
		<edge from-layer="860" from-port="0" to-layer="861" to-port="1"/>
		<edge from-layer="815" from-port="2" to-layer="862" to-port="0"/>
		<edge from-layer="861" from-port="2" to-layer="862" to-port="1"/>
		<edge from-layer="863" from-port="0" to-layer="864" to-port="0"/>
		<edge from-layer="862" from-port="2" to-layer="865" to-port="0"/>
		<edge from-layer="864" from-port="1" to-layer="865" to-port="1"/>
		<edge from-layer="865" from-port="2" to-layer="866" to-port="0"/>
		<edge from-layer="866" from-port="1" to-layer="867" to-port="0"/>
		<edge from-layer="852" from-port="0" to-layer="867" to-port="1"/>
		<edge from-layer="853" from-port="0" to-layer="867" to-port="2"/>
		<edge from-layer="854" from-port="0" to-layer="867" to-port="3"/>
		<edge from-layer="855" from-port="0" to-layer="867" to-port="4"/>
		<edge from-layer="851" from-port="5" to-layer="868" to-port="0"/>
		<edge from-layer="867" from-port="5" to-layer="868" to-port="1"/>
		<edge from-layer="869" from-port="0" to-layer="870" to-port="0"/>
		<edge from-layer="870" from-port="1" to-layer="872" to-port="0"/>
		<edge from-layer="871" from-port="0" to-layer="872" to-port="1"/>
		<edge from-layer="872" from-port="2" to-layer="874" to-port="0"/>
		<edge from-layer="873" from-port="0" to-layer="874" to-port="1"/>
		<edge from-layer="868" from-port="2" to-layer="875" to-port="0"/>
		<edge from-layer="874" from-port="2" to-layer="875" to-port="1"/>
		<edge from-layer="876" from-port="0" to-layer="877" to-port="0"/>
		<edge from-layer="875" from-port="2" to-layer="878" to-port="0"/>
		<edge from-layer="877" from-port="1" to-layer="878" to-port="1"/>
		<edge from-layer="878" from-port="2" to-layer="879" to-port="0"/>
		<edge from-layer="879" from-port="1" to-layer="880" to-port="0"/>
		<edge from-layer="566" from-port="0" to-layer="880" to-port="1"/>
		<edge from-layer="567" from-port="0" to-layer="880" to-port="2"/>
		<edge from-layer="568" from-port="0" to-layer="880" to-port="3"/>
		<edge from-layer="569" from-port="0" to-layer="880" to-port="4"/>
		<edge from-layer="881" from-port="0" to-layer="882" to-port="0"/>
		<edge from-layer="882" from-port="1" to-layer="884" to-port="0"/>
		<edge from-layer="883" from-port="0" to-layer="884" to-port="1"/>
		<edge from-layer="884" from-port="2" to-layer="886" to-port="0"/>
		<edge from-layer="885" from-port="0" to-layer="886" to-port="1"/>
		<edge from-layer="880" from-port="5" to-layer="887" to-port="0"/>
		<edge from-layer="886" from-port="2" to-layer="887" to-port="1"/>
		<edge from-layer="888" from-port="0" to-layer="889" to-port="0"/>
		<edge from-layer="887" from-port="2" to-layer="890" to-port="0"/>
		<edge from-layer="889" from-port="1" to-layer="890" to-port="1"/>
		<edge from-layer="890" from-port="2" to-layer="891" to-port="0"/>
		<edge from-layer="891" from-port="1" to-layer="892" to-port="0"/>
		<edge from-layer="562" from-port="0" to-layer="892" to-port="1"/>
		<edge from-layer="563" from-port="0" to-layer="892" to-port="2"/>
		<edge from-layer="564" from-port="0" to-layer="892" to-port="3"/>
		<edge from-layer="565" from-port="0" to-layer="892" to-port="4"/>
		<edge from-layer="893" from-port="0" to-layer="894" to-port="0"/>
		<edge from-layer="894" from-port="1" to-layer="896" to-port="0"/>
		<edge from-layer="895" from-port="0" to-layer="896" to-port="1"/>
		<edge from-layer="896" from-port="2" to-layer="898" to-port="0"/>
		<edge from-layer="897" from-port="0" to-layer="898" to-port="1"/>
		<edge from-layer="892" from-port="5" to-layer="899" to-port="0"/>
		<edge from-layer="898" from-port="2" to-layer="899" to-port="1"/>
		<edge from-layer="900" from-port="0" to-layer="901" to-port="0"/>
		<edge from-layer="899" from-port="2" to-layer="902" to-port="0"/>
		<edge from-layer="901" from-port="1" to-layer="902" to-port="1"/>
		<edge from-layer="902" from-port="2" to-layer="903" to-port="0"/>
		<edge from-layer="903" from-port="1" to-layer="904" to-port="0"/>
		<edge from-layer="558" from-port="0" to-layer="904" to-port="1"/>
		<edge from-layer="559" from-port="0" to-layer="904" to-port="2"/>
		<edge from-layer="560" from-port="0" to-layer="904" to-port="3"/>
		<edge from-layer="561" from-port="0" to-layer="904" to-port="4"/>
		<edge from-layer="905" from-port="0" to-layer="906" to-port="0"/>
		<edge from-layer="906" from-port="1" to-layer="908" to-port="0"/>
		<edge from-layer="907" from-port="0" to-layer="908" to-port="1"/>
		<edge from-layer="908" from-port="2" to-layer="910" to-port="0"/>
		<edge from-layer="909" from-port="0" to-layer="910" to-port="1"/>
		<edge from-layer="904" from-port="5" to-layer="911" to-port="0"/>
		<edge from-layer="910" from-port="2" to-layer="911" to-port="1"/>
		<edge from-layer="912" from-port="0" to-layer="913" to-port="0"/>
		<edge from-layer="911" from-port="2" to-layer="914" to-port="0"/>
		<edge from-layer="913" from-port="1" to-layer="914" to-port="1"/>
		<edge from-layer="914" from-port="2" to-layer="915" to-port="0"/>
		<edge from-layer="915" from-port="1" to-layer="916" to-port="0"/>
		<edge from-layer="554" from-port="0" to-layer="916" to-port="1"/>
		<edge from-layer="555" from-port="0" to-layer="916" to-port="2"/>
		<edge from-layer="556" from-port="0" to-layer="916" to-port="3"/>
		<edge from-layer="557" from-port="0" to-layer="916" to-port="4"/>
		<edge from-layer="917" from-port="0" to-layer="918" to-port="0"/>
		<edge from-layer="918" from-port="1" to-layer="920" to-port="0"/>
		<edge from-layer="919" from-port="0" to-layer="920" to-port="1"/>
		<edge from-layer="920" from-port="2" to-layer="922" to-port="0"/>
		<edge from-layer="921" from-port="0" to-layer="922" to-port="1"/>
		<edge from-layer="916" from-port="5" to-layer="923" to-port="0"/>
		<edge from-layer="922" from-port="2" to-layer="923" to-port="1"/>
		<edge from-layer="924" from-port="0" to-layer="925" to-port="0"/>
		<edge from-layer="923" from-port="2" to-layer="926" to-port="0"/>
		<edge from-layer="925" from-port="1" to-layer="926" to-port="1"/>
		<edge from-layer="927" from-port="0" to-layer="928" to-port="0"/>
		<edge from-layer="928" from-port="1" to-layer="930" to-port="0"/>
		<edge from-layer="929" from-port="0" to-layer="930" to-port="1"/>
		<edge from-layer="930" from-port="2" to-layer="932" to-port="0"/>
		<edge from-layer="931" from-port="0" to-layer="932" to-port="1"/>
		<edge from-layer="916" from-port="5" to-layer="933" to-port="0"/>
		<edge from-layer="932" from-port="2" to-layer="933" to-port="1"/>
		<edge from-layer="934" from-port="0" to-layer="935" to-port="0"/>
		<edge from-layer="933" from-port="2" to-layer="936" to-port="0"/>
		<edge from-layer="935" from-port="1" to-layer="936" to-port="1"/>
		<edge from-layer="936" from-port="2" to-layer="937" to-port="0"/>
		<edge from-layer="946" from-port="0" to-layer="947" to-port="0"/>
		<edge from-layer="947" from-port="1" to-layer="949" to-port="0"/>
		<edge from-layer="948" from-port="0" to-layer="949" to-port="1"/>
		<edge from-layer="949" from-port="2" to-layer="951" to-port="0"/>
		<edge from-layer="950" from-port="0" to-layer="951" to-port="1"/>
		<edge from-layer="892" from-port="5" to-layer="952" to-port="0"/>
		<edge from-layer="951" from-port="2" to-layer="952" to-port="1"/>
		<edge from-layer="953" from-port="0" to-layer="954" to-port="0"/>
		<edge from-layer="952" from-port="2" to-layer="955" to-port="0"/>
		<edge from-layer="954" from-port="1" to-layer="955" to-port="1"/>
		<edge from-layer="955" from-port="2" to-layer="956" to-port="0"/>
		<edge from-layer="956" from-port="1" to-layer="957" to-port="0"/>
		<edge from-layer="942" from-port="0" to-layer="957" to-port="1"/>
		<edge from-layer="943" from-port="0" to-layer="957" to-port="2"/>
		<edge from-layer="944" from-port="0" to-layer="957" to-port="3"/>
		<edge from-layer="945" from-port="0" to-layer="957" to-port="4"/>
		<edge from-layer="958" from-port="0" to-layer="959" to-port="0"/>
		<edge from-layer="959" from-port="1" to-layer="961" to-port="0"/>
		<edge from-layer="960" from-port="0" to-layer="961" to-port="1"/>
		<edge from-layer="961" from-port="2" to-layer="963" to-port="0"/>
		<edge from-layer="962" from-port="0" to-layer="963" to-port="1"/>
		<edge from-layer="957" from-port="5" to-layer="964" to-port="0"/>
		<edge from-layer="963" from-port="2" to-layer="964" to-port="1"/>
		<edge from-layer="965" from-port="0" to-layer="966" to-port="0"/>
		<edge from-layer="964" from-port="2" to-layer="967" to-port="0"/>
		<edge from-layer="966" from-port="1" to-layer="967" to-port="1"/>
		<edge from-layer="967" from-port="2" to-layer="968" to-port="0"/>
		<edge from-layer="968" from-port="1" to-layer="969" to-port="0"/>
		<edge from-layer="938" from-port="0" to-layer="969" to-port="1"/>
		<edge from-layer="939" from-port="0" to-layer="969" to-port="2"/>
		<edge from-layer="940" from-port="0" to-layer="969" to-port="3"/>
		<edge from-layer="941" from-port="0" to-layer="969" to-port="4"/>
		<edge from-layer="970" from-port="0" to-layer="971" to-port="0"/>
		<edge from-layer="971" from-port="1" to-layer="973" to-port="0"/>
		<edge from-layer="972" from-port="0" to-layer="973" to-port="1"/>
		<edge from-layer="973" from-port="2" to-layer="975" to-port="0"/>
		<edge from-layer="974" from-port="0" to-layer="975" to-port="1"/>
		<edge from-layer="969" from-port="5" to-layer="976" to-port="0"/>
		<edge from-layer="975" from-port="2" to-layer="976" to-port="1"/>
		<edge from-layer="977" from-port="0" to-layer="978" to-port="0"/>
		<edge from-layer="976" from-port="2" to-layer="979" to-port="0"/>
		<edge from-layer="978" from-port="1" to-layer="979" to-port="1"/>
		<edge from-layer="979" from-port="2" to-layer="980" to-port="0"/>
		<edge from-layer="926" from-port="2" to-layer="981" to-port="0"/>
		<edge from-layer="937" from-port="1" to-layer="981" to-port="1"/>
		<edge from-layer="980" from-port="1" to-layer="981" to-port="2"/>
		<edge from-layer="981" from-port="3" to-layer="983" to-port="0"/>
		<edge from-layer="982" from-port="0" to-layer="983" to-port="1"/>
		<edge from-layer="1016" from-port="0" to-layer="1017" to-port="0"/>
		<edge from-layer="1017" from-port="1" to-layer="1019" to-port="0"/>
		<edge from-layer="1018" from-port="0" to-layer="1019" to-port="1"/>
		<edge from-layer="1019" from-port="2" to-layer="1021" to-port="0"/>
		<edge from-layer="1020" from-port="0" to-layer="1021" to-port="1"/>
		<edge from-layer="880" from-port="5" to-layer="1022" to-port="0"/>
		<edge from-layer="1021" from-port="2" to-layer="1022" to-port="1"/>
		<edge from-layer="1023" from-port="0" to-layer="1024" to-port="0"/>
		<edge from-layer="1022" from-port="2" to-layer="1025" to-port="0"/>
		<edge from-layer="1024" from-port="1" to-layer="1025" to-port="1"/>
		<edge from-layer="1025" from-port="2" to-layer="1026" to-port="0"/>
		<edge from-layer="1026" from-port="1" to-layer="1027" to-port="0"/>
		<edge from-layer="1012" from-port="0" to-layer="1027" to-port="1"/>
		<edge from-layer="1013" from-port="0" to-layer="1027" to-port="2"/>
		<edge from-layer="1014" from-port="0" to-layer="1027" to-port="3"/>
		<edge from-layer="1015" from-port="0" to-layer="1027" to-port="4"/>
		<edge from-layer="1027" from-port="5" to-layer="1028" to-port="0"/>
		<edge from-layer="808" from-port="5" to-layer="1028" to-port="1"/>
		<edge from-layer="1029" from-port="0" to-layer="1030" to-port="0"/>
		<edge from-layer="1030" from-port="1" to-layer="1032" to-port="0"/>
		<edge from-layer="1031" from-port="0" to-layer="1032" to-port="1"/>
		<edge from-layer="1032" from-port="2" to-layer="1034" to-port="0"/>
		<edge from-layer="1033" from-port="0" to-layer="1034" to-port="1"/>
		<edge from-layer="1028" from-port="2" to-layer="1035" to-port="0"/>
		<edge from-layer="1034" from-port="2" to-layer="1035" to-port="1"/>
		<edge from-layer="1036" from-port="0" to-layer="1037" to-port="0"/>
		<edge from-layer="1035" from-port="2" to-layer="1038" to-port="0"/>
		<edge from-layer="1037" from-port="1" to-layer="1038" to-port="1"/>
		<edge from-layer="1038" from-port="2" to-layer="1039" to-port="0"/>
		<edge from-layer="1039" from-port="1" to-layer="1040" to-port="0"/>
		<edge from-layer="1008" from-port="0" to-layer="1040" to-port="1"/>
		<edge from-layer="1009" from-port="0" to-layer="1040" to-port="2"/>
		<edge from-layer="1010" from-port="0" to-layer="1040" to-port="3"/>
		<edge from-layer="1011" from-port="0" to-layer="1040" to-port="4"/>
		<edge from-layer="1041" from-port="0" to-layer="1042" to-port="0"/>
		<edge from-layer="1042" from-port="1" to-layer="1044" to-port="0"/>
		<edge from-layer="1043" from-port="0" to-layer="1044" to-port="1"/>
		<edge from-layer="1044" from-port="2" to-layer="1046" to-port="0"/>
		<edge from-layer="1045" from-port="0" to-layer="1046" to-port="1"/>
		<edge from-layer="1040" from-port="5" to-layer="1047" to-port="0"/>
		<edge from-layer="1046" from-port="2" to-layer="1047" to-port="1"/>
		<edge from-layer="1048" from-port="0" to-layer="1049" to-port="0"/>
		<edge from-layer="1047" from-port="2" to-layer="1050" to-port="0"/>
		<edge from-layer="1049" from-port="1" to-layer="1050" to-port="1"/>
		<edge from-layer="1050" from-port="2" to-layer="1051" to-port="0"/>
		<edge from-layer="1051" from-port="1" to-layer="1052" to-port="0"/>
		<edge from-layer="1004" from-port="0" to-layer="1052" to-port="1"/>
		<edge from-layer="1005" from-port="0" to-layer="1052" to-port="2"/>
		<edge from-layer="1006" from-port="0" to-layer="1052" to-port="3"/>
		<edge from-layer="1007" from-port="0" to-layer="1052" to-port="4"/>
		<edge from-layer="1053" from-port="0" to-layer="1054" to-port="0"/>
		<edge from-layer="1054" from-port="1" to-layer="1056" to-port="0"/>
		<edge from-layer="1055" from-port="0" to-layer="1056" to-port="1"/>
		<edge from-layer="1056" from-port="2" to-layer="1058" to-port="0"/>
		<edge from-layer="1057" from-port="0" to-layer="1058" to-port="1"/>
		<edge from-layer="1052" from-port="5" to-layer="1059" to-port="0"/>
		<edge from-layer="1058" from-port="2" to-layer="1059" to-port="1"/>
		<edge from-layer="1060" from-port="0" to-layer="1061" to-port="0"/>
		<edge from-layer="1059" from-port="2" to-layer="1062" to-port="0"/>
		<edge from-layer="1061" from-port="1" to-layer="1062" to-port="1"/>
		<edge from-layer="1062" from-port="2" to-layer="1063" to-port="0"/>
		<edge from-layer="1063" from-port="1" to-layer="1064" to-port="0"/>
		<edge from-layer="1000" from-port="0" to-layer="1064" to-port="1"/>
		<edge from-layer="1001" from-port="0" to-layer="1064" to-port="2"/>
		<edge from-layer="1002" from-port="0" to-layer="1064" to-port="3"/>
		<edge from-layer="1003" from-port="0" to-layer="1064" to-port="4"/>
		<edge from-layer="1069" from-port="0" to-layer="1070" to-port="0"/>
		<edge from-layer="1070" from-port="1" to-layer="1072" to-port="0"/>
		<edge from-layer="1071" from-port="0" to-layer="1072" to-port="1"/>
		<edge from-layer="1072" from-port="2" to-layer="1074" to-port="0"/>
		<edge from-layer="1073" from-port="0" to-layer="1074" to-port="1"/>
		<edge from-layer="1028" from-port="2" to-layer="1075" to-port="0"/>
		<edge from-layer="1074" from-port="2" to-layer="1075" to-port="1"/>
		<edge from-layer="1076" from-port="0" to-layer="1077" to-port="0"/>
		<edge from-layer="1075" from-port="2" to-layer="1078" to-port="0"/>
		<edge from-layer="1077" from-port="1" to-layer="1078" to-port="1"/>
		<edge from-layer="1078" from-port="2" to-layer="1079" to-port="0"/>
		<edge from-layer="1079" from-port="1" to-layer="1080" to-port="0"/>
		<edge from-layer="1065" from-port="0" to-layer="1080" to-port="1"/>
		<edge from-layer="1066" from-port="0" to-layer="1080" to-port="2"/>
		<edge from-layer="1067" from-port="0" to-layer="1080" to-port="3"/>
		<edge from-layer="1068" from-port="0" to-layer="1080" to-port="4"/>
		<edge from-layer="1064" from-port="5" to-layer="1081" to-port="0"/>
		<edge from-layer="1080" from-port="5" to-layer="1081" to-port="1"/>
		<edge from-layer="1082" from-port="0" to-layer="1083" to-port="0"/>
		<edge from-layer="1083" from-port="1" to-layer="1085" to-port="0"/>
		<edge from-layer="1084" from-port="0" to-layer="1085" to-port="1"/>
		<edge from-layer="1085" from-port="2" to-layer="1087" to-port="0"/>
		<edge from-layer="1086" from-port="0" to-layer="1087" to-port="1"/>
		<edge from-layer="1081" from-port="2" to-layer="1088" to-port="0"/>
		<edge from-layer="1087" from-port="2" to-layer="1088" to-port="1"/>
		<edge from-layer="1089" from-port="0" to-layer="1090" to-port="0"/>
		<edge from-layer="1088" from-port="2" to-layer="1091" to-port="0"/>
		<edge from-layer="1090" from-port="1" to-layer="1091" to-port="1"/>
		<edge from-layer="1091" from-port="2" to-layer="1092" to-port="0"/>
		<edge from-layer="1092" from-port="1" to-layer="1093" to-port="0"/>
		<edge from-layer="996" from-port="0" to-layer="1093" to-port="1"/>
		<edge from-layer="997" from-port="0" to-layer="1093" to-port="2"/>
		<edge from-layer="998" from-port="0" to-layer="1093" to-port="3"/>
		<edge from-layer="999" from-port="0" to-layer="1093" to-port="4"/>
		<edge from-layer="1094" from-port="0" to-layer="1095" to-port="0"/>
		<edge from-layer="1095" from-port="1" to-layer="1097" to-port="0"/>
		<edge from-layer="1096" from-port="0" to-layer="1097" to-port="1"/>
		<edge from-layer="1097" from-port="2" to-layer="1099" to-port="0"/>
		<edge from-layer="1098" from-port="0" to-layer="1099" to-port="1"/>
		<edge from-layer="1093" from-port="5" to-layer="1100" to-port="0"/>
		<edge from-layer="1099" from-port="2" to-layer="1100" to-port="1"/>
		<edge from-layer="1101" from-port="0" to-layer="1102" to-port="0"/>
		<edge from-layer="1100" from-port="2" to-layer="1103" to-port="0"/>
		<edge from-layer="1102" from-port="1" to-layer="1103" to-port="1"/>
		<edge from-layer="1103" from-port="2" to-layer="1104" to-port="0"/>
		<edge from-layer="1104" from-port="1" to-layer="1105" to-port="0"/>
		<edge from-layer="992" from-port="0" to-layer="1105" to-port="1"/>
		<edge from-layer="993" from-port="0" to-layer="1105" to-port="2"/>
		<edge from-layer="994" from-port="0" to-layer="1105" to-port="3"/>
		<edge from-layer="995" from-port="0" to-layer="1105" to-port="4"/>
		<edge from-layer="1106" from-port="0" to-layer="1107" to-port="0"/>
		<edge from-layer="1107" from-port="1" to-layer="1109" to-port="0"/>
		<edge from-layer="1108" from-port="0" to-layer="1109" to-port="1"/>
		<edge from-layer="1109" from-port="2" to-layer="1111" to-port="0"/>
		<edge from-layer="1110" from-port="0" to-layer="1111" to-port="1"/>
		<edge from-layer="1105" from-port="5" to-layer="1112" to-port="0"/>
		<edge from-layer="1111" from-port="2" to-layer="1112" to-port="1"/>
		<edge from-layer="1113" from-port="0" to-layer="1114" to-port="0"/>
		<edge from-layer="1112" from-port="2" to-layer="1115" to-port="0"/>
		<edge from-layer="1114" from-port="1" to-layer="1115" to-port="1"/>
		<edge from-layer="1115" from-port="2" to-layer="1116" to-port="0"/>
		<edge from-layer="1116" from-port="1" to-layer="1117" to-port="0"/>
		<edge from-layer="988" from-port="0" to-layer="1117" to-port="1"/>
		<edge from-layer="989" from-port="0" to-layer="1117" to-port="2"/>
		<edge from-layer="990" from-port="0" to-layer="1117" to-port="3"/>
		<edge from-layer="991" from-port="0" to-layer="1117" to-port="4"/>
		<edge from-layer="1118" from-port="0" to-layer="1119" to-port="0"/>
		<edge from-layer="1119" from-port="1" to-layer="1121" to-port="0"/>
		<edge from-layer="1120" from-port="0" to-layer="1121" to-port="1"/>
		<edge from-layer="1121" from-port="2" to-layer="1123" to-port="0"/>
		<edge from-layer="1122" from-port="0" to-layer="1123" to-port="1"/>
		<edge from-layer="1117" from-port="5" to-layer="1124" to-port="0"/>
		<edge from-layer="1123" from-port="2" to-layer="1124" to-port="1"/>
		<edge from-layer="1125" from-port="0" to-layer="1126" to-port="0"/>
		<edge from-layer="1124" from-port="2" to-layer="1127" to-port="0"/>
		<edge from-layer="1126" from-port="1" to-layer="1127" to-port="1"/>
		<edge from-layer="1127" from-port="2" to-layer="1128" to-port="0"/>
		<edge from-layer="1128" from-port="1" to-layer="1129" to-port="0"/>
		<edge from-layer="984" from-port="0" to-layer="1129" to-port="1"/>
		<edge from-layer="985" from-port="0" to-layer="1129" to-port="2"/>
		<edge from-layer="986" from-port="0" to-layer="1129" to-port="3"/>
		<edge from-layer="987" from-port="0" to-layer="1129" to-port="4"/>
		<edge from-layer="1130" from-port="0" to-layer="1131" to-port="0"/>
		<edge from-layer="1131" from-port="1" to-layer="1133" to-port="0"/>
		<edge from-layer="1132" from-port="0" to-layer="1133" to-port="1"/>
		<edge from-layer="1133" from-port="2" to-layer="1135" to-port="0"/>
		<edge from-layer="1134" from-port="0" to-layer="1135" to-port="1"/>
		<edge from-layer="1129" from-port="5" to-layer="1136" to-port="0"/>
		<edge from-layer="1135" from-port="2" to-layer="1136" to-port="1"/>
		<edge from-layer="1137" from-port="0" to-layer="1138" to-port="0"/>
		<edge from-layer="1136" from-port="2" to-layer="1139" to-port="0"/>
		<edge from-layer="1138" from-port="1" to-layer="1139" to-port="1"/>
		<edge from-layer="1140" from-port="0" to-layer="1141" to-port="0"/>
		<edge from-layer="1141" from-port="1" to-layer="1143" to-port="0"/>
		<edge from-layer="1142" from-port="0" to-layer="1143" to-port="1"/>
		<edge from-layer="1143" from-port="2" to-layer="1145" to-port="0"/>
		<edge from-layer="1144" from-port="0" to-layer="1145" to-port="1"/>
		<edge from-layer="1129" from-port="5" to-layer="1146" to-port="0"/>
		<edge from-layer="1145" from-port="2" to-layer="1146" to-port="1"/>
		<edge from-layer="1147" from-port="0" to-layer="1148" to-port="0"/>
		<edge from-layer="1146" from-port="2" to-layer="1149" to-port="0"/>
		<edge from-layer="1148" from-port="1" to-layer="1149" to-port="1"/>
		<edge from-layer="1149" from-port="2" to-layer="1150" to-port="0"/>
		<edge from-layer="1159" from-port="0" to-layer="1160" to-port="0"/>
		<edge from-layer="1160" from-port="1" to-layer="1162" to-port="0"/>
		<edge from-layer="1161" from-port="0" to-layer="1162" to-port="1"/>
		<edge from-layer="1162" from-port="2" to-layer="1164" to-port="0"/>
		<edge from-layer="1163" from-port="0" to-layer="1164" to-port="1"/>
		<edge from-layer="1105" from-port="5" to-layer="1165" to-port="0"/>
		<edge from-layer="1164" from-port="2" to-layer="1165" to-port="1"/>
		<edge from-layer="1166" from-port="0" to-layer="1167" to-port="0"/>
		<edge from-layer="1165" from-port="2" to-layer="1168" to-port="0"/>
		<edge from-layer="1167" from-port="1" to-layer="1168" to-port="1"/>
		<edge from-layer="1168" from-port="2" to-layer="1169" to-port="0"/>
		<edge from-layer="1169" from-port="1" to-layer="1170" to-port="0"/>
		<edge from-layer="1155" from-port="0" to-layer="1170" to-port="1"/>
		<edge from-layer="1156" from-port="0" to-layer="1170" to-port="2"/>
		<edge from-layer="1157" from-port="0" to-layer="1170" to-port="3"/>
		<edge from-layer="1158" from-port="0" to-layer="1170" to-port="4"/>
		<edge from-layer="1171" from-port="0" to-layer="1172" to-port="0"/>
		<edge from-layer="1172" from-port="1" to-layer="1174" to-port="0"/>
		<edge from-layer="1173" from-port="0" to-layer="1174" to-port="1"/>
		<edge from-layer="1174" from-port="2" to-layer="1176" to-port="0"/>
		<edge from-layer="1175" from-port="0" to-layer="1176" to-port="1"/>
		<edge from-layer="1170" from-port="5" to-layer="1177" to-port="0"/>
		<edge from-layer="1176" from-port="2" to-layer="1177" to-port="1"/>
		<edge from-layer="1178" from-port="0" to-layer="1179" to-port="0"/>
		<edge from-layer="1177" from-port="2" to-layer="1180" to-port="0"/>
		<edge from-layer="1179" from-port="1" to-layer="1180" to-port="1"/>
		<edge from-layer="1180" from-port="2" to-layer="1181" to-port="0"/>
		<edge from-layer="1181" from-port="1" to-layer="1182" to-port="0"/>
		<edge from-layer="1151" from-port="0" to-layer="1182" to-port="1"/>
		<edge from-layer="1152" from-port="0" to-layer="1182" to-port="2"/>
		<edge from-layer="1153" from-port="0" to-layer="1182" to-port="3"/>
		<edge from-layer="1154" from-port="0" to-layer="1182" to-port="4"/>
		<edge from-layer="1183" from-port="0" to-layer="1184" to-port="0"/>
		<edge from-layer="1184" from-port="1" to-layer="1186" to-port="0"/>
		<edge from-layer="1185" from-port="0" to-layer="1186" to-port="1"/>
		<edge from-layer="1186" from-port="2" to-layer="1188" to-port="0"/>
		<edge from-layer="1187" from-port="0" to-layer="1188" to-port="1"/>
		<edge from-layer="1182" from-port="5" to-layer="1189" to-port="0"/>
		<edge from-layer="1188" from-port="2" to-layer="1189" to-port="1"/>
		<edge from-layer="1190" from-port="0" to-layer="1191" to-port="0"/>
		<edge from-layer="1189" from-port="2" to-layer="1192" to-port="0"/>
		<edge from-layer="1191" from-port="1" to-layer="1192" to-port="1"/>
		<edge from-layer="1192" from-port="2" to-layer="1193" to-port="0"/>
		<edge from-layer="1139" from-port="2" to-layer="1194" to-port="0"/>
		<edge from-layer="1150" from-port="1" to-layer="1194" to-port="1"/>
		<edge from-layer="1193" from-port="1" to-layer="1194" to-port="2"/>
		<edge from-layer="1194" from-port="3" to-layer="1196" to-port="0"/>
		<edge from-layer="1195" from-port="0" to-layer="1196" to-port="1"/>
		<edge from-layer="1229" from-port="0" to-layer="1230" to-port="0"/>
		<edge from-layer="1230" from-port="1" to-layer="1232" to-port="0"/>
		<edge from-layer="1231" from-port="0" to-layer="1232" to-port="1"/>
		<edge from-layer="1232" from-port="2" to-layer="1234" to-port="0"/>
		<edge from-layer="1233" from-port="0" to-layer="1234" to-port="1"/>
		<edge from-layer="1093" from-port="5" to-layer="1235" to-port="0"/>
		<edge from-layer="1234" from-port="2" to-layer="1235" to-port="1"/>
		<edge from-layer="1236" from-port="0" to-layer="1237" to-port="0"/>
		<edge from-layer="1235" from-port="2" to-layer="1238" to-port="0"/>
		<edge from-layer="1237" from-port="1" to-layer="1238" to-port="1"/>
		<edge from-layer="1238" from-port="2" to-layer="1239" to-port="0"/>
		<edge from-layer="1239" from-port="1" to-layer="1240" to-port="0"/>
		<edge from-layer="1225" from-port="0" to-layer="1240" to-port="1"/>
		<edge from-layer="1226" from-port="0" to-layer="1240" to-port="2"/>
		<edge from-layer="1227" from-port="0" to-layer="1240" to-port="3"/>
		<edge from-layer="1228" from-port="0" to-layer="1240" to-port="4"/>
		<edge from-layer="1240" from-port="5" to-layer="1241" to-port="0"/>
		<edge from-layer="724" from-port="5" to-layer="1241" to-port="1"/>
		<edge from-layer="1242" from-port="0" to-layer="1243" to-port="0"/>
		<edge from-layer="1243" from-port="1" to-layer="1245" to-port="0"/>
		<edge from-layer="1244" from-port="0" to-layer="1245" to-port="1"/>
		<edge from-layer="1245" from-port="2" to-layer="1247" to-port="0"/>
		<edge from-layer="1246" from-port="0" to-layer="1247" to-port="1"/>
		<edge from-layer="1241" from-port="2" to-layer="1248" to-port="0"/>
		<edge from-layer="1247" from-port="2" to-layer="1248" to-port="1"/>
		<edge from-layer="1249" from-port="0" to-layer="1250" to-port="0"/>
		<edge from-layer="1248" from-port="2" to-layer="1251" to-port="0"/>
		<edge from-layer="1250" from-port="1" to-layer="1251" to-port="1"/>
		<edge from-layer="1251" from-port="2" to-layer="1252" to-port="0"/>
		<edge from-layer="1252" from-port="1" to-layer="1253" to-port="0"/>
		<edge from-layer="1221" from-port="0" to-layer="1253" to-port="1"/>
		<edge from-layer="1222" from-port="0" to-layer="1253" to-port="2"/>
		<edge from-layer="1223" from-port="0" to-layer="1253" to-port="3"/>
		<edge from-layer="1224" from-port="0" to-layer="1253" to-port="4"/>
		<edge from-layer="1254" from-port="0" to-layer="1255" to-port="0"/>
		<edge from-layer="1255" from-port="1" to-layer="1257" to-port="0"/>
		<edge from-layer="1256" from-port="0" to-layer="1257" to-port="1"/>
		<edge from-layer="1257" from-port="2" to-layer="1259" to-port="0"/>
		<edge from-layer="1258" from-port="0" to-layer="1259" to-port="1"/>
		<edge from-layer="1253" from-port="5" to-layer="1260" to-port="0"/>
		<edge from-layer="1259" from-port="2" to-layer="1260" to-port="1"/>
		<edge from-layer="1261" from-port="0" to-layer="1262" to-port="0"/>
		<edge from-layer="1260" from-port="2" to-layer="1263" to-port="0"/>
		<edge from-layer="1262" from-port="1" to-layer="1263" to-port="1"/>
		<edge from-layer="1263" from-port="2" to-layer="1264" to-port="0"/>
		<edge from-layer="1264" from-port="1" to-layer="1265" to-port="0"/>
		<edge from-layer="1217" from-port="0" to-layer="1265" to-port="1"/>
		<edge from-layer="1218" from-port="0" to-layer="1265" to-port="2"/>
		<edge from-layer="1219" from-port="0" to-layer="1265" to-port="3"/>
		<edge from-layer="1220" from-port="0" to-layer="1265" to-port="4"/>
		<edge from-layer="1266" from-port="0" to-layer="1267" to-port="0"/>
		<edge from-layer="1267" from-port="1" to-layer="1269" to-port="0"/>
		<edge from-layer="1268" from-port="0" to-layer="1269" to-port="1"/>
		<edge from-layer="1269" from-port="2" to-layer="1271" to-port="0"/>
		<edge from-layer="1270" from-port="0" to-layer="1271" to-port="1"/>
		<edge from-layer="1265" from-port="5" to-layer="1272" to-port="0"/>
		<edge from-layer="1271" from-port="2" to-layer="1272" to-port="1"/>
		<edge from-layer="1273" from-port="0" to-layer="1274" to-port="0"/>
		<edge from-layer="1272" from-port="2" to-layer="1275" to-port="0"/>
		<edge from-layer="1274" from-port="1" to-layer="1275" to-port="1"/>
		<edge from-layer="1275" from-port="2" to-layer="1276" to-port="0"/>
		<edge from-layer="1276" from-port="1" to-layer="1277" to-port="0"/>
		<edge from-layer="1213" from-port="0" to-layer="1277" to-port="1"/>
		<edge from-layer="1214" from-port="0" to-layer="1277" to-port="2"/>
		<edge from-layer="1215" from-port="0" to-layer="1277" to-port="3"/>
		<edge from-layer="1216" from-port="0" to-layer="1277" to-port="4"/>
		<edge from-layer="1282" from-port="0" to-layer="1283" to-port="0"/>
		<edge from-layer="1283" from-port="1" to-layer="1285" to-port="0"/>
		<edge from-layer="1284" from-port="0" to-layer="1285" to-port="1"/>
		<edge from-layer="1285" from-port="2" to-layer="1287" to-port="0"/>
		<edge from-layer="1286" from-port="0" to-layer="1287" to-port="1"/>
		<edge from-layer="1241" from-port="2" to-layer="1288" to-port="0"/>
		<edge from-layer="1287" from-port="2" to-layer="1288" to-port="1"/>
		<edge from-layer="1289" from-port="0" to-layer="1290" to-port="0"/>
		<edge from-layer="1288" from-port="2" to-layer="1291" to-port="0"/>
		<edge from-layer="1290" from-port="1" to-layer="1291" to-port="1"/>
		<edge from-layer="1291" from-port="2" to-layer="1292" to-port="0"/>
		<edge from-layer="1292" from-port="1" to-layer="1293" to-port="0"/>
		<edge from-layer="1278" from-port="0" to-layer="1293" to-port="1"/>
		<edge from-layer="1279" from-port="0" to-layer="1293" to-port="2"/>
		<edge from-layer="1280" from-port="0" to-layer="1293" to-port="3"/>
		<edge from-layer="1281" from-port="0" to-layer="1293" to-port="4"/>
		<edge from-layer="1277" from-port="5" to-layer="1294" to-port="0"/>
		<edge from-layer="1293" from-port="5" to-layer="1294" to-port="1"/>
		<edge from-layer="1295" from-port="0" to-layer="1296" to-port="0"/>
		<edge from-layer="1296" from-port="1" to-layer="1298" to-port="0"/>
		<edge from-layer="1297" from-port="0" to-layer="1298" to-port="1"/>
		<edge from-layer="1298" from-port="2" to-layer="1300" to-port="0"/>
		<edge from-layer="1299" from-port="0" to-layer="1300" to-port="1"/>
		<edge from-layer="1294" from-port="2" to-layer="1301" to-port="0"/>
		<edge from-layer="1300" from-port="2" to-layer="1301" to-port="1"/>
		<edge from-layer="1302" from-port="0" to-layer="1303" to-port="0"/>
		<edge from-layer="1301" from-port="2" to-layer="1304" to-port="0"/>
		<edge from-layer="1303" from-port="1" to-layer="1304" to-port="1"/>
		<edge from-layer="1304" from-port="2" to-layer="1305" to-port="0"/>
		<edge from-layer="1305" from-port="1" to-layer="1306" to-port="0"/>
		<edge from-layer="1209" from-port="0" to-layer="1306" to-port="1"/>
		<edge from-layer="1210" from-port="0" to-layer="1306" to-port="2"/>
		<edge from-layer="1211" from-port="0" to-layer="1306" to-port="3"/>
		<edge from-layer="1212" from-port="0" to-layer="1306" to-port="4"/>
		<edge from-layer="1307" from-port="0" to-layer="1308" to-port="0"/>
		<edge from-layer="1308" from-port="1" to-layer="1310" to-port="0"/>
		<edge from-layer="1309" from-port="0" to-layer="1310" to-port="1"/>
		<edge from-layer="1310" from-port="2" to-layer="1312" to-port="0"/>
		<edge from-layer="1311" from-port="0" to-layer="1312" to-port="1"/>
		<edge from-layer="1306" from-port="5" to-layer="1313" to-port="0"/>
		<edge from-layer="1312" from-port="2" to-layer="1313" to-port="1"/>
		<edge from-layer="1314" from-port="0" to-layer="1315" to-port="0"/>
		<edge from-layer="1313" from-port="2" to-layer="1316" to-port="0"/>
		<edge from-layer="1315" from-port="1" to-layer="1316" to-port="1"/>
		<edge from-layer="1316" from-port="2" to-layer="1317" to-port="0"/>
		<edge from-layer="1317" from-port="1" to-layer="1318" to-port="0"/>
		<edge from-layer="1205" from-port="0" to-layer="1318" to-port="1"/>
		<edge from-layer="1206" from-port="0" to-layer="1318" to-port="2"/>
		<edge from-layer="1207" from-port="0" to-layer="1318" to-port="3"/>
		<edge from-layer="1208" from-port="0" to-layer="1318" to-port="4"/>
		<edge from-layer="1319" from-port="0" to-layer="1320" to-port="0"/>
		<edge from-layer="1320" from-port="1" to-layer="1322" to-port="0"/>
		<edge from-layer="1321" from-port="0" to-layer="1322" to-port="1"/>
		<edge from-layer="1322" from-port="2" to-layer="1324" to-port="0"/>
		<edge from-layer="1323" from-port="0" to-layer="1324" to-port="1"/>
		<edge from-layer="1318" from-port="5" to-layer="1325" to-port="0"/>
		<edge from-layer="1324" from-port="2" to-layer="1325" to-port="1"/>
		<edge from-layer="1326" from-port="0" to-layer="1327" to-port="0"/>
		<edge from-layer="1325" from-port="2" to-layer="1328" to-port="0"/>
		<edge from-layer="1327" from-port="1" to-layer="1328" to-port="1"/>
		<edge from-layer="1328" from-port="2" to-layer="1329" to-port="0"/>
		<edge from-layer="1329" from-port="1" to-layer="1330" to-port="0"/>
		<edge from-layer="1201" from-port="0" to-layer="1330" to-port="1"/>
		<edge from-layer="1202" from-port="0" to-layer="1330" to-port="2"/>
		<edge from-layer="1203" from-port="0" to-layer="1330" to-port="3"/>
		<edge from-layer="1204" from-port="0" to-layer="1330" to-port="4"/>
		<edge from-layer="1331" from-port="0" to-layer="1332" to-port="0"/>
		<edge from-layer="1332" from-port="1" to-layer="1334" to-port="0"/>
		<edge from-layer="1333" from-port="0" to-layer="1334" to-port="1"/>
		<edge from-layer="1334" from-port="2" to-layer="1336" to-port="0"/>
		<edge from-layer="1335" from-port="0" to-layer="1336" to-port="1"/>
		<edge from-layer="1330" from-port="5" to-layer="1337" to-port="0"/>
		<edge from-layer="1336" from-port="2" to-layer="1337" to-port="1"/>
		<edge from-layer="1338" from-port="0" to-layer="1339" to-port="0"/>
		<edge from-layer="1337" from-port="2" to-layer="1340" to-port="0"/>
		<edge from-layer="1339" from-port="1" to-layer="1340" to-port="1"/>
		<edge from-layer="1340" from-port="2" to-layer="1341" to-port="0"/>
		<edge from-layer="1341" from-port="1" to-layer="1342" to-port="0"/>
		<edge from-layer="1197" from-port="0" to-layer="1342" to-port="1"/>
		<edge from-layer="1198" from-port="0" to-layer="1342" to-port="2"/>
		<edge from-layer="1199" from-port="0" to-layer="1342" to-port="3"/>
		<edge from-layer="1200" from-port="0" to-layer="1342" to-port="4"/>
		<edge from-layer="1343" from-port="0" to-layer="1344" to-port="0"/>
		<edge from-layer="1344" from-port="1" to-layer="1346" to-port="0"/>
		<edge from-layer="1345" from-port="0" to-layer="1346" to-port="1"/>
		<edge from-layer="1346" from-port="2" to-layer="1348" to-port="0"/>
		<edge from-layer="1347" from-port="0" to-layer="1348" to-port="1"/>
		<edge from-layer="1342" from-port="5" to-layer="1349" to-port="0"/>
		<edge from-layer="1348" from-port="2" to-layer="1349" to-port="1"/>
		<edge from-layer="1350" from-port="0" to-layer="1351" to-port="0"/>
		<edge from-layer="1349" from-port="2" to-layer="1352" to-port="0"/>
		<edge from-layer="1351" from-port="1" to-layer="1352" to-port="1"/>
		<edge from-layer="1353" from-port="0" to-layer="1354" to-port="0"/>
		<edge from-layer="1354" from-port="1" to-layer="1356" to-port="0"/>
		<edge from-layer="1355" from-port="0" to-layer="1356" to-port="1"/>
		<edge from-layer="1356" from-port="2" to-layer="1358" to-port="0"/>
		<edge from-layer="1357" from-port="0" to-layer="1358" to-port="1"/>
		<edge from-layer="1342" from-port="5" to-layer="1359" to-port="0"/>
		<edge from-layer="1358" from-port="2" to-layer="1359" to-port="1"/>
		<edge from-layer="1360" from-port="0" to-layer="1361" to-port="0"/>
		<edge from-layer="1359" from-port="2" to-layer="1362" to-port="0"/>
		<edge from-layer="1361" from-port="1" to-layer="1362" to-port="1"/>
		<edge from-layer="1362" from-port="2" to-layer="1363" to-port="0"/>
		<edge from-layer="1372" from-port="0" to-layer="1373" to-port="0"/>
		<edge from-layer="1373" from-port="1" to-layer="1375" to-port="0"/>
		<edge from-layer="1374" from-port="0" to-layer="1375" to-port="1"/>
		<edge from-layer="1375" from-port="2" to-layer="1377" to-port="0"/>
		<edge from-layer="1376" from-port="0" to-layer="1377" to-port="1"/>
		<edge from-layer="1318" from-port="5" to-layer="1378" to-port="0"/>
		<edge from-layer="1377" from-port="2" to-layer="1378" to-port="1"/>
		<edge from-layer="1379" from-port="0" to-layer="1380" to-port="0"/>
		<edge from-layer="1378" from-port="2" to-layer="1381" to-port="0"/>
		<edge from-layer="1380" from-port="1" to-layer="1381" to-port="1"/>
		<edge from-layer="1381" from-port="2" to-layer="1382" to-port="0"/>
		<edge from-layer="1382" from-port="1" to-layer="1383" to-port="0"/>
		<edge from-layer="1368" from-port="0" to-layer="1383" to-port="1"/>
		<edge from-layer="1369" from-port="0" to-layer="1383" to-port="2"/>
		<edge from-layer="1370" from-port="0" to-layer="1383" to-port="3"/>
		<edge from-layer="1371" from-port="0" to-layer="1383" to-port="4"/>
		<edge from-layer="1384" from-port="0" to-layer="1385" to-port="0"/>
		<edge from-layer="1385" from-port="1" to-layer="1387" to-port="0"/>
		<edge from-layer="1386" from-port="0" to-layer="1387" to-port="1"/>
		<edge from-layer="1387" from-port="2" to-layer="1389" to-port="0"/>
		<edge from-layer="1388" from-port="0" to-layer="1389" to-port="1"/>
		<edge from-layer="1383" from-port="5" to-layer="1390" to-port="0"/>
		<edge from-layer="1389" from-port="2" to-layer="1390" to-port="1"/>
		<edge from-layer="1391" from-port="0" to-layer="1392" to-port="0"/>
		<edge from-layer="1390" from-port="2" to-layer="1393" to-port="0"/>
		<edge from-layer="1392" from-port="1" to-layer="1393" to-port="1"/>
		<edge from-layer="1393" from-port="2" to-layer="1394" to-port="0"/>
		<edge from-layer="1394" from-port="1" to-layer="1395" to-port="0"/>
		<edge from-layer="1364" from-port="0" to-layer="1395" to-port="1"/>
		<edge from-layer="1365" from-port="0" to-layer="1395" to-port="2"/>
		<edge from-layer="1366" from-port="0" to-layer="1395" to-port="3"/>
		<edge from-layer="1367" from-port="0" to-layer="1395" to-port="4"/>
		<edge from-layer="1396" from-port="0" to-layer="1397" to-port="0"/>
		<edge from-layer="1397" from-port="1" to-layer="1399" to-port="0"/>
		<edge from-layer="1398" from-port="0" to-layer="1399" to-port="1"/>
		<edge from-layer="1399" from-port="2" to-layer="1401" to-port="0"/>
		<edge from-layer="1400" from-port="0" to-layer="1401" to-port="1"/>
		<edge from-layer="1395" from-port="5" to-layer="1402" to-port="0"/>
		<edge from-layer="1401" from-port="2" to-layer="1402" to-port="1"/>
		<edge from-layer="1403" from-port="0" to-layer="1404" to-port="0"/>
		<edge from-layer="1402" from-port="2" to-layer="1405" to-port="0"/>
		<edge from-layer="1404" from-port="1" to-layer="1405" to-port="1"/>
		<edge from-layer="1405" from-port="2" to-layer="1406" to-port="0"/>
		<edge from-layer="1352" from-port="2" to-layer="1407" to-port="0"/>
		<edge from-layer="1363" from-port="1" to-layer="1407" to-port="1"/>
		<edge from-layer="1406" from-port="1" to-layer="1407" to-port="2"/>
		<edge from-layer="1407" from-port="3" to-layer="1409" to-port="0"/>
		<edge from-layer="1408" from-port="0" to-layer="1409" to-port="1"/>
		<edge from-layer="983" from-port="2" to-layer="1410" to-port="0"/>
		<edge from-layer="1196" from-port="2" to-layer="1410" to-port="1"/>
		<edge from-layer="1409" from-port="2" to-layer="1410" to-port="2"/>
		<edge from-layer="1410" from-port="3" to-layer="1412" to-port="0"/>
		<edge from-layer="1411" from-port="0" to-layer="1412" to-port="1"/>
		<edge from-layer="1412" from-port="2" to-layer="1413" to-port="0"/>
	</edges>
	<meta_data>
		<MO_version value="2022.1.0-7019-cdb9bec7210-releases/2022/1"/>
		<Runtime_version value="2022.1.0-7019-cdb9bec7210-releases/2022/1"/>
		<legacy_path value="True"/>
		<cli_parameters>
			<caffe_parser_path value="DIR"/>
			<compress_fp16 value="True"/>
			<data_type value="FP32"/>
			<disable_nhwc_to_nchw value="False"/>
			<disable_omitting_optional value="False"/>
			<disable_resnet_optimization value="False"/>
			<disable_weights_compression value="False"/>
			<enable_concat_optimization value="False"/>
			<enable_flattening_nested_params value="False"/>
			<enable_ssd_gluoncv value="False"/>
			<extensions value="DIR"/>
			<framework value="onnx"/>
			<freeze_placeholder_with_value value="{}"/>
			<input_model value="DIR/yolox_s_lp.onnx"/>
			<input_model_is_text value="False"/>
			<input_shape value="[1,3,416,416]"/>
			<k value="DIR/CustomLayersMapping.xml"/>
			<layout value="()"/>
			<layout_values value="{}"/>
			<legacy_mxnet_model value="False"/>
			<log_level value="ERROR"/>
			<mean_scale_values value="{}"/>
			<mean_values value="()"/>
			<model_name value="yolox_s_lp"/>
			<output_dir value="DIR"/>
			<placeholder_data_types value="{}"/>
			<placeholder_shapes value="(1, 3, 416, 416)"/>
			<progress value="False"/>
			<remove_memory value="False"/>
			<remove_output_softmax value="False"/>
			<reverse_input_channels value="False"/>
			<save_params_from_nd value="False"/>
			<scale_values value="()"/>
			<silent value="False"/>
			<source_layout value="()"/>
			<static_shape value="False"/>
			<stream_output value="False"/>
			<target_layout value="()"/>
			<transform value=""/>
			<use_legacy_frontend value="False"/>
			<use_new_frontend value="False"/>
			<unset unset_cli_parameters="batch, counts, disable_fusing, finegrain_fusing, input, input_checkpoint, input_meta_graph, input_proto, input_symbol, mean_file, mean_file_offsets, nd_prefix_name, output, pretrained_model_name, saved_model_dir, saved_model_tags, scale, tensorboard_logdir, tensorflow_custom_layer_libraries, tensorflow_custom_operations_config_update, tensorflow_object_detection_api_pipeline_config, tensorflow_use_custom_operations_config, transformations_config"/>
		</cli_parameters>
	</meta_data>
	<quantization_parameters>
		<config>{
		'compression': {
			'target_device': 'ANY',
			'algorithms': [
				{
					'name': 'DefaultQuantization',
					'params': {
						'preset': 'performance',
						'stat_subset_size': 300
					}
				}
			]
		},
		'engine': {
			'config': '&lt;CONFIG_PATH&gt;',
			'type': 'simplified',
			'data_source': 'PATH',
			'device': 'CPU'
		}
	}</config>
		<version value="2022.1.0-7019-cdb9bec7210-releases/2022/1"/>
		<cli_params value="{'quantize': 'default', 'preset': None, 'model': 'yolox_s_lp.xml', 'weights': 'yolox_s_lp.bin', 'name': None, 'engine': 'simplified', 'ac_config': None, 'max_drop': None, 'evaluate': False, 'output_dir': 'PATH', 'direct_dump': False, 'log_level': 'INFO', 'pbar': False, 'stream_output': False, 'keep_uncompressed_weights': False, 'data_source': 'pot_images/'}"/>
	</quantization_parameters>
</net>
